emgforcetransformer/model_saves/emg_force_transformer_20240920_231003.pth (torch, 411334 bytes, 129 tensors)

object_queries f4 [5, 32]
0.7368896 1.0631403 -0.24939638 0.8026434 0.050178956 0.20358686 -0.42594886 -0.46969682
1.5198588 -0.6880619 -1.1925428 0.8232364 -1.2700306 1.5815198 0.74189 1.7651137
0.46435603 -1.109032 0.49263036 -0.07018069 0.13434921 -1.3400899 1.0849141 0.5471418
0.1255841 -0.119859956 1.2641097 -0.9791138 1.4931084 0.7820766 -0.10114329 0.14447048
0.25897136 -1.7628434 1.2231096 0.44633615 -1.4155198 -0.24248591 0.48871863 -0.6156253
0.90506405 2.5309808 -0.13800012 0.0409946 -0.45549238 -0.36860552 -0.21977302 -0.8476777
0.19915193 0.62954366 -0.6328666 -0.6419855 -0.0014981432 -1.4355184 0.3730284 -0.4113685
1.0933567 -0.59122854 -1.1718638 0.19970301 1.6681995 -1.1054146 -1.7209018 0.35117206
0.3670714 -0.32238293 1.6482952 -0.99434674 -0.70926815 -1.145031 -0.492492 1.4012125
0.20682442 -0.24620806 -0.022923408 1.0883819 2.0315485 0.7463897 1.9665934 1.8300642
-0.65731883 -1.3203802 -0.63147783 -0.045207106 -0.8377365 0.25903141 0.79794806 0.6135933
-0.6146919 0.3872574 1.186632 -0.9222862 0.72055316 1.3606055 0.8973467 0.006700703
1.1713505 0.5853666 0.7772487 -1.4133137 -0.57316244 -0.9100212 2.2383215 1.3975401
-1.2275538 0.8571952 -1.4530718 2.3690467 -0.28318977 0.8565418 0.97283095 -0.7343739
0.16741621 -1.0405971 0.0006199182 -1.135438 -0.31238866 -0.9195428 0.26900908 -0.10736131
0.8121912 -0.15596673 0.37549788 -0.3414578 1.5779791 1.9147899 -0.9886797 0.9622479
0.8283073 2.1788006 -1.059455 -0.31163648 -0.30217835 0.6883344 1.6869671 0.56690943
-0.7694968 0.20763433 -0.83360934 -0.10928731 -0.46635157 1.4883872 1.210996 -2.4938118
-0.087061696 0.4117757 -0.35518366 -1.7652094 0.13976912 0.18248913 -0.060025178 -0.2655171
1.538048 -1.6654109 -1.0246887 0.7658807 0.20653255 1.218171 0.854445 1.775505
00000000: cca4 3c3f fb14 883f c461 7fbe 0a7a 4d3f
00000010: 7388 4d3d 1379 503e f815 dabe 1a7c f0be
00000020: bc8a c23f d324 30bf 3ea5 98bf 9fbf 523f
00000030: 5d90 a2bf 3e6f ca3f 81ec 3d3f 3fef e13f
00000040: 13c0 ed3e c3f4 8dbf 0c3a fc3e e5ba 8fbd
00000050: d792 093e 1188 abbf 77de 8a3f 7c11 0c3f
00000060: 1e99 003e 2379 f5bd 59ce a13f 34a7 7abf
00000070: 2d1e bf3f 2c36 483f 3724 cfbd 12f0 133e
00000080: e597 843e daa4 e1bf db8e 9c3f 2c86 e43e
00000090: c12f b5bf 3a4e 78be 5439 fa3e 9f99 1dbf
000000a0: 47b2 673f 97fb 2140 e74f 0dbe f4e9 273d
000000b0: 4c36 e9be ddb9 bcbe 2e0c 61be 6801 59bf
000000c0: 7cee 4b3e c629 213f 8c03 22bf 2959 24bf
000000d0: 585d c4ba 11bf b7bf 94fd be3e e49e d2be
000000e0: 1df3 8b3f c15a 17bf a2ff 95bf f27e 4c3e
000000f0: 9087 d53f 3a7e 8dbf 8346 dcbf d3cc b33e
00000100: c8f0 bb3e 600f a5be 56fb d23f 828d 7ebf
00000110: 9992 35bf 6090 92bf e927 fcbe ee5a b33f
00000120: c8c9 533e f71d 7cbe dfc9 bbbc 1950 8b3f
00000130: e404 0240 6513 3f3f 55b9 fb3f 8b3f ea3f
00000140: 0c46 28bf 3802 a9bf 88a8 21bf 162b 39bd
00000150: e675 56bf c49f 843e 5346 4c3f 7314 1d3f
00000160: 735c 1dbf 9a46 c63e 8fe3 973f f31a 6cbf
00000170: 2c76 383f 5228 ae3f 83b8 653f 9291 db3b
00000180: d0ee 953f 96da 153f c5f9 463f 77e7 b4bf
00000190: c6ba 12bf 26f7 68bf a940 0f40 98e2 b23f
000001a0: 7c20 9dbf 2571 5b3f 42fe b9bf 769e 1740
000001b0: 40fe 90be 5346 5b3f 730b 793f eeff 3bbf
000001c0: 286f 2b3e 4932 85bf 0282 223a 0856 91bf
000001d0: 68f1 9fbe 2867 6bbf 8fbb 893e 3fe0 dbbd
000001e0: c3eb 4f3f beb5 1fbe 4241 c03e 8fd3 aebe
000001f0: 38fb c93f d617 f53f 1d1a 7dbf e155 763f
00000200: f20b 543f 7871 0b40 399c 87bf d18e 9fbe
00000210: 1fb7 9abe af36 303f 8aee d73f fa20 113f
00000220: befd 44bf 189e 543e 6c67 55bf 06d2 dfbd
00000230: a2c5 eebe 7983 be3f eb01 9b3f 9d9a 1fc0
00000240: 674d b2bd 44d4 d23e a2da b5be 62f2 e1bf
00000250: a31f 0f3e 6ede 3a3e f6dc 75bd dbf1 87be
00000260: c2de c43f 2f2c d5bf 0029 83bf c210 443f
00000270: 457d 533e 07ed 9b3f e8bc 5a3f bf43 e33f

input_projection.weight f4 [32, 1024]
0.03246734 -0.008121333 -0.0721548 -0.15925603 -0.20854452 -0.21727365 -0.2779696 -0.32827997
-0.37639603 -0.33954436 -0.25171843 -0.13495456 -0.10401711 -0.15363136 -0.23647067 -0.43480453
-0.65625197 -0.677677 -0.6661266 -0.5791916 -0.52793276 -0.45718828 -0.48676866 -0.45928586
-0.46302164 -0.44479033 -0.41271514 -0.4949199 -0.5428949 -0.56133974 -0.4509227 -0.41689417
-0.42161533 -0.49547964 -0.46918148 -0.46239227 -0.37977797 -0.37513763 -0.29891056 -0.22957024
-0.1160018 -0.030785874 0.031747486 0.052954722 0.3026409 0.47886196 0.6173241 0.6683278
0.6420903 0.69844925 0.7078753 0.54609764 0.1327339 0.13660333 0.14743038 0.33983326
0.5360809 0.68363804 0.6807411 0.63384265 0.6518739 0.79423976 0.7648132 0.6176759
0.5503844 0.4817772 0.47951037 0.48489517 0.4459126 0.34228185 0.28977194 0.40511993
0.5685789 0.59797955 0.43024206 0.21637973 0.13009751 0.07537774 0.09905949 0.23831923
0.5026116 0.39899838 0.24737597 0.004327487 -0.12609792 -0.08278425 0.11710356 0.3180032
0.28452688 -0.019688958 -0.13485059 -0.1284168 0.010341206 -0.009379642 0.07429226 0.6408965
0.489047 0.5027868 0.5854277 0.5952112 0.19523719 0.14416453 0.14097062 0.11595637
0.021523993 0.0076019997 0.14274247 0.3993948 0.52074414 0.44819602 0.21161795 0.23611997
0.57262486 0.6898374 0.77317643 0.7418771 0.55099577 0.5470131 0.6055057 0.67292285
0.54831433 0.49437013 0.42820147 0.3345466 0.17828847 -0.11286678 -0.36912602 -0.46230888
-0.5116859 -0.526711 -0.3488936 0.17455888 0.37997553 0.27368432 0.21744633 0.2198534
0.23171432 0.22189347 0.13590632 -0.15504034 -0.28542578 -0.2603201 -0.114008814 0.049039323
0.26087168 0.25174156 -0.10200005 -0.30350074 -0.3496276 -0.450921 -0.6313636 -0.68606514
-0.70318806 -0.6031266 -0.57470596 -0.5842513 -0.62347883 -0.61006135 -0.57807475 -0.6094871
-0.62979686 -0.57299197 -0.5702874 -0.64258844 -0.63435084 -0.5447023 -0.57730013 -0.5742831
-0.70452195 -0.70427054 -0.72252107 -0.67499596 -0.5126466 -0.22232394 -0.08937172 -0.01810979
-0.045813646 -0.10882689 -0.285717 -0.332761 -0.26620328 -0.18437292 -0.17901526 -0.3229012
-0.5816918 -0.6926054 -0.6502883 -0.7329185 -0.78841513 -0.780819 -0.761138 -0.77184707
-0.6615295 -0.48570058 -0.278887 -0.120384105 -0.1366359 -0.23016858 -0.22383288 -0.17654511
0.5850835 0.6240619 0.68035555 0.61860096 0.6834426 0.774622 0.74622 0.78828955
0.78754854 0.7714249 0.6954461 0.68120074 0.6602703 0.51658195 0.32290074 0.26210022
0.33875805 0.46367636 0.49251407 0.40246478 0.1531704 0.092093 0.1331106 0.22154975
0.20438603 0.07749531 -0.06968895 -0.10344902 -0.19368967 -0.2429758 -0.26912138 -0.2478604
-0.25688618 -0.20307074 -0.21921967 -0.19702409 -0.15188703 0.048652187 0.35539317 0.6303105
0.71539485 0.64213675 0.45532498 0.39231625 0.49058604 0.5846853 0.5675809 0.37463066
-0.07344929 -0.059151422 0.2832287 0.51769626 0.52179676 0.5149392 0.51984334 0.54814905
00000000: 79fc 043d 570f 05bc e5c5 93bd 0314 23be
00000010: b28c 55be fc7c 5ebe 0852 8ebe 5014 a8be
00000020: fbb6 c0be c2d8 adbe 3de1 80be 8731 0abe
00000030: ec06 d5bd 8a51 1dbe 5e25 72be b39e debe
00000040: 2100 28bf 3d7c 2dbf 4687 2abf e745 14bf
00000050: 9a26 07bf 9514 eabe be39 f9be 8427 ebbe
00000060: 2c11 edbe 8fbb e3be 664f d3be 2466 fdbe
00000070: 29fb 0abf f6b3 0fbf 57df e6be 2773 d5be
00000080: f7dd d7be 82af fdbe 8e38 f0be aebe ecbe
00000090: 4272 c2be 0a12 c0be ce0a 99be 7614 6bbe
000000a0: 5a92 edbd a832 fcbc a709 023d 0de7 583d
000000b0: bff3 9a3e 652d f53e f408 1e3f 8817 2b3f
000000c0: 0860 243f 92cd 323f 5137 353f 0ecd 0b3f
000000d0: 65eb 073e bee1 0b3e fdf7 163e a0fe ad3e
000000e0: 993c 093f e702 2f3f 0c45 2e3f 8343 223f
000000f0: 35e1 263f 4c53 4b3f ccca 433f 0220 1e3f
00000100: fee5 0c3f 80ab f63e 6282 f53e 2e44 f83e
00000110: a84e e43e 913f af3e fd5c 943e e16b cf3e
00000120: 638e 113f 3015 193f b048 dc3e a692 5d3e
00000130: 4838 053e a55f 9a3d b4df ca3d f509 743e
00000140: 27ab 003f 8449 cc3e 2050 7d3e 98cd 8d3b
00000150: d01f 01be ca8a a9bd fed3 ef3d 51d1 a23e
00000160: 82ad 913e bd4a a1bc 4616 0abe b27f 03be
00000170: 296e 293c 12ad 19bc 8a26 983d cb11 243f
00000180: 5e64 fa3e a3b6 003f 97de 153f c35f 183f
00000190: 42ec 473e de9f 133e 9a5a 103e 897a ed3d
000001a0: 1653 b03c 321a f93b 152b 123e 7a7d cc3e
000001b0: 7d4f 053f f379 e53e 60b2 583e 6fc9 713e
000001c0: 8b97 123f 2f99 303f e4ee 453f a8eb 3d3f
000001d0: 0f0e 0d3f 0d09 0c3f 6c02 1b3f ac44 2c3f
000001e0: 545e 0c3f 151e fd3e 393d db3e b149 ab3e
000001f0: 4191 363e b326 e7bd 16fe bcbe c0b3 ecbe
00000200: d9fd 02bf 88d6 06bf 2fa2 b2be 90bf 323e
00000210: 278c c23e 5a20 8c3e 40aa 5e3e 4021 613e
00000220: 8546 6d3e 0b38 633e 072b 0b3e e5c2 1ebe
00000230: 5423 92be ad48 85be 747d e9bd 75dd 483d
00000240: f990 853e 45e4 803e 67e5 d0bd 7364 9bbe
00000250: 6402 b3be 1edf e6be 0ba1 21bf f7a1 2fbf
00000260: 2204 34bf 8166 1abf ee1f 13bf 7e91 15bf
00000270: 4f9c 1fbf fb2c 1cbf b5fc 13bf 5907 1cbf
00000280: 5e3a 21bf 9aaf 12bf 5bfe 11bf ad80 24bf
00000290: d164 22bf 9c71 0bbf f1c9 13bf 3804 13bf
000002a0: 8d5b 34bf 134b 34bf 24f7 38bf 89cc 2cbf
000002b0: cf3c 03bf e3a8 63be 8508 b7bd fb5a 94bc
000002c0: 17a7 3bbd a2e0 debd 8049 92be a65f aabe
000002d0: cc4b 88be 41cc 3cbe c74f 37be 4e53 a5be
000002e0: c1e9 14bf 964e 31bf 4b79 26bf 8ca0 3bbf
000002f0: 93d5 49bf c1e3 47bf f1d9 42bf c597 45bf
00000300: ff59 29bf bfad f8be 47ca 8ebe f18b f6bd
00000310: 48ea 0bbe 50b1 6bbe 7234 65be 3ec8 34be
00000320: 08c8 153f 85c2 1f3f c82b 2e3f a25c 1e3f
00000330: 18f6 2e3f a14d 463f 4608 3f3f 58cd 493f
00000340: c89c 493f 1a7c 453f c108 323f 2c63 2e3f
00000350: 7907 293f b73e 043f 3f53 a53e 0032 863e
00000360: b271 ad3e fd66 ed3e ce2a fc3e dd0f ce3e
00000370: b4d8 1c3e 419b bc3d 254e 083e f0dd 623e
00000380: 924a 513e dcb5 9e3d 15b9 8ebd 14dd d3bd
00000390: 9656 46be a6ce 78be 47ca 89be 1ecf 7dbe
000003a0: 9686 83be c7f1 4fbe 1f7b 60be afc0 49be
000003b0: 4688 1bbe 8447 473d 18f6 b53e 075c 213f
000003c0: 1e24 373f 1363 243f 5b20 e93e addd c83e
000003d0: 182e fb3e f0ad 153f fb4c 113f 97cf bf3e
000003e0: 956c 96bd c348 72bd 5a03 913e be87 043f
000003f0: 7994 053f 0ed3 033f 7414 053f 7f53 0c3f

input_projection.bias f4 [32]
-0.60965556 -0.16962732 0.43819758 0.5163579 -0.61159724 0.60586625 -0.5137743 -0.40775147
0.2791317 0.51229995 0.5291486 0.012249799 0.423495 -0.597413 0.60188735 0.50791645
0.48606005 0.48216996 -0.56148976 0.22585483 -0.43893698 0.21772596 0.5580596 0.55373687
-0.4014852 -0.59532404 0.58813864 -0.57008636 0.48266596 -0.5393298 0.6096562 0.48929563
00000000: 6312 1cbf c9b2 2dbe 6f5b e03e 0830 043f
00000010: a391 1cbf 0d1a 1b3f b686 03bf cdc4 d0be
00000020: 5aea 8e3e 1726 033f 4876 073f 62b3 483c
00000030: 56d4 d83e 0ff0 18bf 4a15 1a3f d006 023f
00000040: dddc f83e fbde f63e cbbd 0fbf 7d46 673e
00000050: 59bc e0be 8ef3 5e3e fedc 0e3f b3c1 0d3f
00000060: 788f cdbe 2867 18bf 4190 163f 2ef1 11bf
00000070: fe1f f73e 8511 0abf 6e12 1c3f f584 fa3e

output_projection.weight f4 [50, 32]
-0.15171841 -0.4330412 -0.1869456 0.21200968 0.053064432 -0.16052534 -0.0857364 0.17019121
-0.213067 -0.04949884 -0.052593306 -0.15620963 -0.12978798 -0.03716356 -0.12142556 -0.41747802
-0.107294835 -0.063821875 -0.07332821 0.23650159 0.44197834 0.13451774 -0.3146813 -0.016939152
-0.091566674 0.02748562 0.00672788 -0.026155716 -0.1156984 -0.04341759 0.48759225 -0.08400712
0.058485005 -0.21129976 -0.05367047 0.037127905 0.113368444 -0.10152439 -0.008522565 0.4092529
-0.3921822 -0.018509584 -0.3645542 -0.065254614 0.18402646 -0.18529852 -0.038723048 -0.15542243
-0.06245449 -0.323605 -0.34527203 -0.06391586 0.33865243 0.17359741 -0.43044898 0.32610106
0.30117095 0.13285297 -0.31249344 -0.022631265 0.09758091 0.022519168 0.33726394 0.33505893
0.4512237 -0.16452143 0.28033063 -0.07957756 -0.12663627 -0.0702168 0.10139285 0.4283199
-0.26044008 -0.07861425 -0.26965392 0.32877427 -0.05151695 -0.061180048 -0.2514737 0.40879965
-0.066433005 -0.1162543 -0.24478015 -0.13088694 -0.2766402 0.23811424 0.39195228 0.31521377
0.21441934 0.14056152 -0.2172 0.05619377 0.51175594 -0.3555504 0.28240606 -0.24081461
-0.4343288 -0.19015914 -0.16207793 -0.034984358 -0.09536394 -0.049883064 0.021852342 0.31357136
-0.15350373 0.06925658 -0.06033823 -0.089162335 -0.02175592 -0.018970022 -0.1579831 -0.59632045
-0.041207608 -0.033203077 -0.098349415 -0.15309496 0.46562552 0.25366905 -0.39390346 -0.084006265
-0.008426208 0.083255626 0.24146776 -0.29153076 -0.024189798 0.1673394 0.56679094 -0.034676123
0.019858945 -0.32054237 -0.005763866 0.15783502 -0.02754809 -0.04159171 -0.07480292 0.15344365
-0.2484408 -0.07550844 -0.22432658 0.036735334 0.016755482 -0.20938994 -0.16884525 -0.13897443
-0.09330693 -0.12949504 -0.27234852 0.080359176 0.030421073 0.09651311 -0.13470209 0.52518195
0.07125823 0.0028526506 -0.090809904 -0.014926424 0.03824221 -0.067250036 0.191879 0.07347735
0.3594026 0.41880226 0.27371252 -0.14923628 -0.2912034 0.1447638 0.066201605 -0.119576715
0.13091941 0.14070627 0.21229753 0.49883324 0.15611364 0.30424562 -0.27217397 0.04194776
0.13954508 0.45533064 0.136856 -0.09016565 -0.55011207 -0.3445621 0.53513587 -0.090451166
-0.08477227 -0.35518906 -0.21990612 -0.3504443 0.3337004 -0.47108585 -0.3078823 -0.27633274
0.5159122 -0.33993608 0.14209989 0.124095276 -0.12143548 -0.21722604 0.15288159 0.7210387
-0.46829063 0.07935862 -0.3641647 0.016057808 0.10729736 -0.10230192 -0.020034587 0.5742509
-0.08969583 -0.23991887 -0.54318583 -0.25431463 -0.028277015 0.37894717 0.1213426 0.6879027
0.2888379 0.29474694 -0.2996612 -0.045158412 0.639779 -0.39084664 0.5833744 -0.26001838
-0.1005198 -0.39398578 -0.085899636 0.11399353 0.12765712 -0.024033157 -0.033174347 0.38505873
-0.3346251 -0.03045384 -0.44565716 -0.3137227 -0.011396225 -0.34428522 0.39262223 0.05022539
-0.16513704 -0.51045114 -0.3790553 0.0016126682 0.15883264 0.41416863 -0.38837305 0.5379238
0.33264235 0.4467692 -0.4575861 0.23915559 -0.08285711 0.29643878 0.35710427 0.40631747
00000000: 125c 1bbe 93b7 ddbe ab6e 3fbe 1119 593e
00000010: 175a 593d c160 24be 9196 afbd 9b46 2e3e
00000020: 3c2e 5abe 4cbf 4abd 146c 57bd 6bf5 1fbe
00000030: 24e7 04be d138 18bd f7ad f8bd aebf d5be
00000040: 65bd dbbd 0bb5 82bd 1a2d 96bd 792d 723e
00000050: fc4a e23e 05bf 093e e81d a1be fac3 8abc
00000060: 4f87 bbbd 8629 e13c 8c75 dc3b 8344 d6bc
00000070: 48f3 ecbd a5d6 31bd b1a5 f93e ed0b acbd
00000080: f98d 6f3d f75e 58be 91d5 5bbd 6e13 183d
00000090: b72d e83d 05ec cfbd 3aa2 0bbc 9989 d13e
000000a0: 1bcc c8be 69a1 97bc d9a6 babe 36a4 85bd
000000b0: 6f71 3c3e e5be 3dbe 0f9c 1ebd 0f27 1fbe
000000c0: 48d0 7fbd 8eaf a5be 7fc7 b0be 52e6 82bd
000000d0: da63 ad3e 85c3 313e cf63 dcbe b8f6 a63e
000000e0: 1433 9a3e 9c0a 083e 24ff 9fbe 3465 b9bc
000000f0: 80d8 c73d 1e7a b83c dcad ac3e d88c ab3e
00000100: cb06 e73e 4e78 28be 7f87 8f3e 8ff9 a2bd
00000110: f0ac 01be d3cd 8fbd 0ea7 cf3d bf4c db3e
00000120: 6758 85be 8200 a1bd 1410 8abe 1a55 a83e
00000130: 7003 53bd ee97 7abd 29c1 80be 304e d13e
00000140: 070e 88bd bc16 eebd a6a7 7abe 3a07 06be
00000150: c9a3 8dbe 38d4 733e f8ad c83e b363 a13e
00000160: be90 5b3e 5cef 0f3e ad69 5ebe 702b 663d
00000170: 7002 033f b40a b6be 8797 903e 1b98 76be
00000180: 5860 debe 14b9 42be c2f7 25be c24b 0fbd
00000190: 2b4e c3bd 2f52 4cbd af03 b33c 6d8c a03e
000001a0: 1530 1dbe 65d6 8d3d 3825 77bd be9a b6bd
000001b0: 7939 b2bc 0567 9bbc 52c6 21be 75a8 18bf
000001c0: 4fc9 28bd f3ff 07bd 6b6b c9bd edc4 1cbe
000001d0: 7866 ee3e e9e0 813e b7ad c9be 7a0b acbd
000001e0: 140e 0abc ed81 aa3d 5343 773e 8543 95be
000001f0: af29 c6bc 055b 2b3e 3619 113f 8d08 0ebd
00000200: 3aaf a23c 211e a4be d0de bcbb 819f 213e
00000210: 88ac e1bc 125c 2abd 4632 99bd 5520 1d3e
00000220: 4467 7ebe 2ba4 9abd deb5 65be ca77 163d
00000230: cb42 893c 516a 56be c5e5 2cbe 504f 0ebe
00000240: b417 bfbd 599a 04be 4471 8bbe 5a93 a43d
00000250: 9d35 f93c aaa8 c53d 58ef 09be 5372 063f
00000260: d6ef 913d 89f3 3a3b 8bfa b9bd f68d 74bc
00000270: dda3 1c3d 63ba 89bd ee7b 443e 4b7b 963d
00000280: 9e03 b83e 406d d63e 0c24 8c3e 65d1 18be
00000290: 9d18 95be f63c 143e b594 873d a3e4 f4bd
000002a0: bd0f 063e 4e15 103e 8664 593e 1267 ff3e
000002b0: 41dc 1f3e 15c6 9b3e 635a 8bbe 6ad1 2b3d
000002c0: e8e4 0e3e 1921 e93e fb23 0c3e c5a8 b8bd
000002d0: 25d4 0cbf 726a b0be aafe 083f 763e b9bd
000002e0: 159d adbd 57db b5be 122f 61be 6f6d b3be
000002f0: c7da aa3e 2a32 f1be c0a2 9dbe 7c7b 8dbe
00000300: d212 043f 1a0c aebe a282 113e aa25 fe3d
00000310: 2ab3 f8bd 8170 5ebe fe8c 1c3e fe95 383f
00000320: cac3 efbe c686 a23d cc73 babe aa8b 833c
00000330: b8be db3d ab83 d1bd 931f a4bc 1b02 133f
00000340: 73b2 b7bd 4bad 75be 3a0e 0bbf 8735 82be
00000350: 33a5 e7bc 5d05 c23e 7882 f83d 641a 303f
00000360: 90e2 933e 12e9 963e 316d 99be 07f8 38bd
00000370: 8ec8 233f 0d1d c8be 0658 153f 2121 85be
00000380: 53dd cdbd 81b8 c9be 26ec afbd 7175 e93d
00000390: 8cb8 023e 2fe1 c4bc d3e1 07bd 6b26 c53e
000003a0: fb53 abbe 557a f9bc 2d2d e4be 43a0 a0be
000003b0: 3bb7 3abc 2746 b0be c805 c93e 23b9 4d3d
000003c0: af19 29be edac 02bf 8913 c2be 2a60 d33a
000003d0: 06a5 223e e90d d43e d5d8 c6be 60b5 093f
000003e0: 1950 aa3e efbe e43e ba48 eabe 34e5 743e
000003f0: fdb0 a9bd d3c6 973e 5fd6 b63e d808 d03e

output_projection.bias f4 [50]
-0.30963677 -0.23401621 0.0451562 -0.12704037 -0.13468647 0.3763186 -0.075037666 -0.20462535
-0.35371947 0.16184469 0.14593323 -0.056177933 -0.16270865 -0.06818579 -0.16600762 -0.22768526
-0.2326581 0.054985892 0.007793133 -0.18172078 -0.16975293 0.14916214 -0.29596984 0.052300766
0.05286471 -0.09255198 -0.090726085 0.17852013 0.18048586 -0.27712023 -0.10283847 -0.11684573
-0.36761507 -0.03497161 -0.19504142 -0.07876399 -0.23191364 0.26893157 0.12382317 -0.2950117
0.0068345596 -0.31973606 0.084544115 -0.17201222 0.04182989 -0.056301102 0.16149756 0.13133697
-0.07011843 0.05062506
00000000: b688 9ebe f2a1 6fbe b5f5 383d df16 02be
00000010: 40eb 09be d5ac c03e 59ad 99bd 4f89 51be
00000020: b81a b5be 9dba 253e 856f 153e d51a 66bd
00000030: 199d 26be fea4 8bbd e7fd 29be 5326 69be
00000040: ed3d 6ebe e338 613d 8a5d ff3b 0315 3abe
00000050: b6d3 2dbe f6bd 183e 5c89 97be 5439 563d
00000060: ab88 583d e48b bdbd 99ce b9bd fbcd 363e
00000070: 49d1 383e b4e2 8dbe fa9c d2bd d04c efbd
00000080: 0b38 bcbe 643e 0fbd f0b8 47be 044f a1bd
00000090: c57a 6dbe 66b1 893e 0197 fd3d c60b 97be
000000a0: 71f4 df3b 72b4 a3be 7725 ad3d f923 30be
000000b0: d255 2b3d fc9b 66bd 9e5f 253e 337d 063e
000000c0: 409a 8fbd 395c 4f3d

transformer.encoder.layers.0.self_attn.in_proj_weight f4 [96, 32]
0.39394286 0.59725076 -0.58619106 0.41233757 -0.42155787 -0.5091386 0.3707905 -0.33815727
-0.6772474 0.4296319 -0.47365344 -0.34254485 -0.060014773 -0.32126755 -0.30593202 -0.6669843
-0.58983195 -0.86324406 -0.5669865 -0.8025994 -0.085539736 -0.62691236 -0.65141296 -0.556832
-0.70857537 -0.66997534 -0.47505704 -0.28550583 -0.92282385 -0.676705 -0.61615723 -0.6196965
-0.2573892 -0.24572147 -0.49053892 0.42106587 -0.24105369 -0.2832892 0.20430662 -0.34424847
-0.45108205 -0.27463472 -0.4045739 -0.38833213 -0.013510745 -0.17566073 -0.707358 -0.37382552
-0.6259724 -0.408255 -0.19109096 -0.43845156 0.24761459 -0.18656264 -0.30217475 -0.21962504
0.015929872 0.06122206 -0.18258776 -0.3257 -0.68809277 -0.4540237 -0.14042541 -0.39737162
-0.22304717 -0.4036686 -0.9284304 0.2751697 0.15081953 -0.33413142 0.39640912 -0.08443101
-0.09822936 -0.5640977 -0.4607484 0.047345676 -0.120245144 -0.31770176 -0.4716983 -0.45492414
-0.6599604 -0.8578327 -0.05061137 -0.12063362 0.55951005 -0.08820809 -0.56147665 -0.17066179
-0.57377994 0.27622762 0.11705325 -0.22914644 -0.3922405 -0.27711233 0.04760876 -0.22696498
-0.5156082 -0.5357759 -0.025756618 -0.41078645 -0.2244722 0.33922404 -0.52845186 0.10681976
0.22900574 -0.537793 0.5008032 -0.04327823 0.8577683 0.1687247 0.31213328 0.44091251
-0.07597084 -0.019956227 -0.29187027 0.372789 -0.55228215 0.20260803 0.30242306 0.31662896
0.19256762 0.25327426 -0.19637118 0.1634193 0.6815635 0.002420919 -0.22899692 0.17571783
0.55903804 0.57294035 -0.5284943 0.3028 -0.1776792 -0.31070924 0.12686162 -0.12961344
-0.35730222 0.3827837 -0.33748108 -0.4415721 0.6057443 -0.294402 -0.44087455 -0.48479435
-0.64902216 -0.48625335 -0.28959 -0.22541526 -0.22756863 -0.49244255 -0.33538035 -0.1991319
-0.4701979 -0.25471875 -0.42623815 -0.4277004 -0.5000567 -0.21732615 -0.44180545 -0.20858967
-0.5474245 -0.20604691 0.19092913 -0.58370167 -0.2635051 -0.0693338 -0.5331473 -0.21115509
0.31063956 -0.37746263 0.44944447 -0.062024936 0.90269905 0.17093225 0.3881135 -0.04654341
-0.13087492 -0.33487037 -0.056071255 -0.028126154 -0.4495134 0.02996848 0.22803427 0.14660296
0.5174987 0.48062882 -0.2470666 0.14533821 0.54910165 0.16740993 0.12485715 0.08776876
0.3360609 -0.4882723 0.6965285 -0.43196744 0.4287085 0.30497208 -0.24463193 0.28193846
0.62829405 0.388163 0.5673192 0.43429592 -0.3957697 0.5178181 0.6894684 0.32890162
0.34055355 0.32239744 0.5087803 0.23646377 0.5561688 0.49434802 0.40886027 0.45716572
0.55098194 0.4610519 0.28854233 0.43806157 0.72271216 0.23199064 0.2887651 0.40520433
-0.47593707 -0.28608307 0.805274 -0.7186307 0.36495554 0.8674625 -0.50237143 0.54671216
0.6885388 -0.6300249 0.8545023 0.74125475 0.3995588 0.62598985 0.837246 0.6820885
0.89857763 0.97883826 0.574097 0.67046857 0.116575435 0.3798847 0.49927372 0.719919
0.4720655 0.7109704 0.38210896 0.7155776 0.6093329 0.51314586 0.44565022 0.775407
00000000: e1b2 c93e 6de5 183f 9e10 16bf e91d d33e
00000010: 6fd6 d7be e856 02bf 41d8 bd3e f322 adbe
00000020: 1660 2dbf b6f8 db3e b482 f2be 0a62 afbe
00000030: 0dd2 75bd 2e7d a4be 1fa3 9cbe 7cbf 2abf
00000040: 3aff 16bf 90fd 5cbf 0726 11bf 2777 4dbf
00000050: 752f afbd 547d 20bf 00c3 26bf 8b8c 0ebf
00000060: 3265 35bf 8183 2bbf ad3a f3be d22d 92be
00000070: 2f3e 6cbf 8a3c 2dbf 7bbc 1dbf 6ea4 1ebf
00000080: 84c8 83be 699e 7bbe eb27 fbbe f295 d73e
00000090: c7d6 76be 480b 91be c135 513e 5641 b0be
000000a0: 3af4 e6be ec9c 8cbe 4f24 cfbe 78d3 c6be
000000b0: 2c5c 5dbc 68e0 33be 6a15 35bf 0f66 bfbe
000000c0: ba3f 20bf cd06 d1be 59ad 43be b97c e0be
000000d0: ae8e 7d3e 470a 3fbe a6b6 9abe 63e5 60be
000000e0: 5d7f 823c fcc3 7a3d 49f8 3abe 27c2 a6be
000000f0: d926 30bf cb75 e8be aecb 0fbe 4b74 cbbe
00000100: 7a66 64be a7ad cebe 9dad 6dbf 0be3 8c3e
00000110: 6f70 1a3e 4613 abbe 23f6 ca3e 2aea acbd
00000120: 7a2c c9bd b568 10bf 37e7 ebbe 8aed 413d
00000130: 1643 f6bd cea9 a2be 7182 f1be d1eb e8be
00000140: 2af3 28bf ec9a 5bbf de4d 4fbd c20e f7bd
00000150: 0d3c 0f3f 71a6 b4bd efbc 0fbf f7c1 2ebe
00000160: 3ee3 12bf b56d 8d3e 9db9 ef3d 5da5 6abe
00000170: bfd3 c8be abe1 8dbe 6701 433d 8269 68be
00000180: e6fe 03bf 9c28 09bf 8bff d2bc 9a52 d2be
00000190: 0adc 65be c6ae ad3e 9f48 07bf 51c4 da3d
000001a0: 7b80 6a3e cdac 09bf a334 003f 8344 31bd
000001b0: b496 5b3f 2bc6 2c3e efcf 9f3e 49bf e13e
000001c0: 9a96 9bbd 3e7b a3bc 0570 95be 33de be3e
000001d0: 5d62 0dbf 7b78 4f3e 32d7 9a3e 311d a23e
000001e0: 7230 453e 2aad 813e 8715 49be 6457 273e
000001f0: f27a 2e3f 48a8 1e3b 2b7e 6abe 60ef 333e
00000200: 1e1d 0f3f 38ac 123f 674b 07bf 9a08 9b3e
00000210: 89f1 35be 4815 9fbe 03e8 013e 63b9 04be
00000220: 51f0 b6be 3afc c33e 52ca acbe bd15 e2be
00000230: 0f12 1b3f dcbb 96be 4fba e1be f736 f8be
00000240: 5126 26bf 33f6 f8be 2445 94be 42d3 66be
00000250: c007 69be 6e21 fcbe f9b6 abbe 3ce9 4bbe
00000260: c7bd f0be 7f6a 82be e33b dabe 8cfb dabe
00000270: b703 00bf bf8a 5ebe 5334 e2be 8898 55be
00000280: 0324 0cbf f6fd 52be ed82 433e 796d 15bf
00000290: 24ea 86be e1fe 8dbd 577c 08bf 0a39 58be
000002a0: 260c 9f3e c842 c1be 961d e63e dc0d 7ebd
000002b0: 4917 673f dd08 2f3e d0b6 c63e 4da4 3ebd
000002c0: 1304 06be 2174 abbe f9aa 65bd d268 e6bc
000002d0: 9f26 e6be 7580 f53c d181 693e 161f 163e
000002e0: cb7a 043f fb14 f63e 07ff 7cbe 8ad3 143e
000002f0: ed91 0c3f 826d 2b3e 1bb5 ff3d 1cc0 b33d
00000300: 2d10 ac3e d4fe f9be b14f 323f d62a ddbe
00000310: ae7f db3e 4d25 9c3e cb80 7abe 3d5a 903e
00000320: e1d7 203f 4dbd c63e d53b 113f 095c de3e
00000330: 53a2 cabe ba8f 043f 0081 303f cb65 a83e
00000340: 095d ae3e 4711 a53e 6d3f 023f 8f23 723e
00000350: 1461 0e3f 2f1b fd3e 2256 d13e a011 ea3e
00000360: 270d 0d3f ff0e ec3e d2bb 933e 9b49 e03e
00000370: aa03 393f f48e 6d3e 05d9 933e f176 cf3e
00000380: 06ae f3be 7b79 92be 7026 4e3f 2ef8 37bf
00000390: 74db ba3e 0612 5e3f 6a9b 00bf 54f5 0b3f
000003a0: 1444 303f 5049 21bf aac0 5a3f dfc2 3d3f
000003b0: f992 cc3e df40 203f c155 563f 5a9d 2e3f
000003c0: 2f09 663f 2595 7a3f 05f8 123f d4a3 2b3f
000003d0: 1abf ee3d 3f80 c23e cea0 ff3e 9d4c 383f
000003e0: 92b2 f13e 2802 363f c9a3 c33e 1830 373f
000003f0: 3efd 1b3f 875d 033f 442c e43e 1381 463f

transformer.encoder.layers.0.self_attn.in_proj_bias f4 [96]
-0.56849855 -0.2916613 -0.19942173 0.14438897 -0.3433661 0.0045740814 0.43053964 0.6576124
0.0090478845 0.44246975 -0.3251822 -0.13673106 -0.31514147 0.41651136 -0.6855222 0.36055487
0.52729005 -0.5505275 0.53259915 0.31394267 -0.3639374 -0.49629956 -0.55639565 0.6366318
0.46349096 -0.63021994 0.60671157 0.04181553 -0.634721 0.6980957 -0.63238585 -0.50103205
-0.011670206 0.029795693 0.014244474 -0.033161566 -0.015563594 -0.010428577 0.024156043 -0.01774855
-0.010079571 0.003752051 -0.006466726 -0.013098452 0.0033374317 -0.007945635 -0.014515809 -0.0046657063
0.0030902666 -0.00647227 -0.014244505 0.0010452134 -0.0024299645 -0.0031679852 0.0057500037 0.008551305
0.0013735011 -0.010536681 0.0040900297 0.0035791392 0.002579634 -0.006528226 -0.0030457522 0.0045695207
0.24871549 -0.573506 -0.4695293 -0.54258806 -0.5874638 -0.6054904 -0.46873176 -0.2868837
-0.370777 0.5359717 0.37265807 -0.47529653 0.6190639 -0.6281946 -0.5022924 0.4711064
0.54712623 0.5374222 -0.5559189 0.05333815 0.5863819 0.5283433 -0.48178712 -0.53335935
0.14463224 -0.51794785 -0.63166493 0.19346023 0.41083267 -0.4864686 0.40799648 -0.52961135
00000000: 1f89 11bf a154 95be 3635 4cbe b4da 133e
00000010: aecd afbe 2de2 953b b16f dc3e 4959 283f
00000020: 943d 143c 658b e23e 487e a6be 3a03 0cbe
00000030: 395a a1be fa40 d53e 627e 2fbf a69a b83e
00000040: 7bfc 063f 5fef 0cbf 6b58 083f 18bd a03e
00000050: 0156 babe fa1a febe f26f 0ebf 4dfa 223f
00000060: b04e ed3e 1856 21bf 7351 1b3f c346 2b3d
00000070: 137d 22bf 66b6 323f 0ae4 21bf a343 00bf
00000080: 6434 3fbc 1916 f43c a761 693c 6cd4 07bd
00000090: 72fe 7ebc 9fdc 2abc e5e2 c53c 6865 91bc
000000a0: c924 25bc f8e4 753b d4e6 d3bb e49a 56bc
000000b0: d0b8 5a3b 692e 02bc b7d3 6dbc c8e2 98bb
000000c0: 1286 4a3b 5615 d4bb c961 69bc 8bff 883a
000000d0: 0a40 1fbb f99d 4fbb 876a bc3b c61a 0c3c
000000e0: 0d07 b43a 0ba2 2cbc a805 863b fe8f 6a3b
000000f0: 140f 293b bbea d5bb 3e9b 47bb ebbb 953b
00000100: 46af 7e3e 4ad1 12bf 2566 f0be 0de7 0abf
00000110: 0764 16bf 6b01 1bbf 9cfd efbe 6ce2 92be
00000120: 7cd6 bdbe 7135 093f 0acd be3e 115a f3be
00000130: f97a 1e3f 5cd1 20bf 3c96 00bf dc34 f13e
00000140: 7710 0c3f 8094 093f b350 0ebf 1b79 5a3d
00000150: 201d 163f 8241 073f cdac f6be 3d8a 08bf
00000160: 791a 143e 3b98 04bf cbb4 21bf 701a 463e
00000170: a958 d23e 6a12 f9be eae4 d03e 9c94 07bf

transformer.encoder.layers.0.self_attn.out_proj.weight f4 [32, 32]
-0.19444966 0.8575619 -0.66304815 -0.19850129 -0.39952442 0.42806876 -0.64203715 0.67266065
0.78681475 -0.33814815 0.38367626 0.84377676 0.32495084 -0.6528528 0.40318424 -0.6348358
-0.6278581 -0.5624843 -0.8092717 -0.0063842623 0.53082407 0.6223642 -0.7944225 0.6603053
-0.28497756 -0.71199965 0.41195577 -0.4987128 0.8125687 -0.6681814 -0.3984421 0.84920603
-0.37930283 0.31488016 0.2136607 -0.7460212 -0.4910536 0.508831 -0.52189946 0.09406986
0.5031655 -0.2532451 0.22791184 0.6018321 0.19510047 -0.19537619 0.7070643 -0.3896896
-0.406409 -0.6177958 -0.36163682 0.4747021 0.73467165 0.42785978 -0.46522415 0.4016908
-0.49117815 -0.032942187 0.39947695 -0.54196274 0.62342507 -0.50832444 -0.6806595 0.70302075
0.20595987 -0.026099376 0.6917941 0.16948478 0.38897508 -0.36666492 0.32781363 -0.29035228
-0.5286382 0.029419588 -0.6324037 -0.5188227 -0.27525023 0.7874211 -0.035259727 0.06887494
-0.11472606 0.12962553 0.2676144 0.26681718 -0.72675216 -0.71223736 0.5970796 -0.3068905
0.5006646 0.532872 0.5715774 0.44188803 -0.67704093 0.2469146 0.6059255 -0.41511694
0.8592204 -0.27052328 0.36401582 0.5761259 0.6932678 -0.4742926 0.27148923 -0.5680785
-0.6095565 0.5699205 -0.6584196 -0.60068244 -0.20071724 0.55196595 -0.5103506 0.5962066
0.7019657 0.50073975 0.39617214 -0.1753349 -0.6367763 -0.25049838 0.53630316 -0.62705004
0.6989527 0.25283065 -0.73978734 0.86830944 -0.7259491 0.33886677 0.33255365 -0.7986314
-0.83019274 0.91385865 -0.15109853 -0.31723362 -0.4707865 0.48470923 -0.59381837 0.40560412
0.6572886 -0.87901974 0.4022316 0.7571285 0.15615614 -0.6260996 0.7568342 -0.47703218
-0.61981386 -0.81367636 -0.51030415 0.27337962 0.33572513 0.44805858 -0.5751063 0.79503447
-0.5647097 -0.4189682 0.36772764 -0.4795989 0.35810387 -0.3575509 -0.3720342 0.4450897
0.19360495 0.48547128 -0.86211705 -0.31158975 -0.18247342 0.049719665 -0.11581589 0.33870813
0.5276982 -0.036227506 0.47738007 0.3457543 0.6289697 -0.71493703 0.6153137 -0.46164268
-0.0862618 -0.1359447 -0.34130868 -0.52422094 0.7109842 0.32306936 -0.2061272 0.18269207
-0.46507475 -0.32753316 -0.120759055 -0.121681966 0.5226045 -0.40701997 -0.5341931 0.4780796
-0.060492065 0.24779545 -0.7659349 -0.60018367 -0.19507048 0.24822468 -0.7332279 0.50595146
0.60059154 -0.5993354 0.25418636 0.7236414 0.61078686 -0.42271805 0.59593934 -0.56622314
-0.543402 -0.21895991 -0.44042963 -0.37670174 0.2423922 0.20796384 -0.24447562 0.6402109
-0.63719445 -0.17646888 0.5885433 -0.43032745 0.33095154 -0.5647822 -0.7741279 0.62710166
0.55730563 -0.0122092515 -0.46150848 -0.65409577 -0.46014252 -0.14437121 0.08322678 -0.5083931
0.06098326 0.18893023 0.32067132 0.06790657 0.76854324 -0.5612468 0.29922205 0.06714165
0.07891378 -0.11262478 -0.52717274 -0.599641 0.17727919 0.49150756 -0.05494346 0.20982671
-0.20723301 -0.48740456 -0.4549889 0.24325415 0.38694686 -0.3198854 -0.13281563 0.09425439
00000000: d01d 47be 2d89 5b3f 86bd 29bf ec43 4bbe
00000010: 778e ccbe d42b db3e 8c5c 24bf 7d33 2c3f
00000020: b16c 493f c121 adbe 3771 c43e c101 583f
00000030: f55f a63e 5c21 27bf 2a6e ce3e 9984 22bf
00000040: 4fbb 20bf f9fe 0fbf 6e2c 4fbf 1333 d1bb
00000050: 16e4 073f 4353 1f3f 465f 4bbf c509 293f
00000060: 94e8 91be 9c45 36bf deeb d23e 4957 ffbe
00000070: 8104 503f f00d 2bbf 9a00 ccbe 9165 593f
00000080: fb33 c2be f937 a13e dfc9 5a3e 3ffb 3ebf
00000090: 616b fbbe c042 023f 349b 05bf b3a7 c03d
000000a0: 74cf 003f 57a9 81be b961 693e ab11 1a3f
000000b0: 6bc8 473e b210 48be 2a02 353f 6585 c7be
000000c0: d714 d0be de27 1ebf 7628 b9be 270c f33e
000000d0: 7113 3c3f 7010 db3e dc31 eebe 6baa cd3e
000000e0: b47b fbbe 63ee 06bd 3e88 cc3e 12be 0abf
000000f0: c998 1f3f 8d21 02bf b33f 2ebf 2bf9 333f
00000100: 25e7 523e 5cce d5bc 6b19 313f 6b8d 2d3e
00000110: be27 c73e 81bb bbbe 30d7 a73e 0ea9 94be
00000120: d554 07bf 5901 f13c 35e5 21bf 91d1 04bf
00000130: 99ed 8cbe 6e94 493f 816c 10bd 4e0e 8d3d
00000140: 7ff5 eabd 8ebc 043e c104 893e 439c 883e
00000150: 6e0c 3abf 3055 36bf 35da 183f c020 9dbe
00000160: 8e2b 003f 4d6a 083f e652 123f 263f e23e
00000170: 8e52 2dbf 2ed7 7c3e ef1d 1b3f 358a d4be
00000180: def5 5b3f 0782 8abe 4860 ba3e fd7c 133f
00000190: 007a 313f 7bd6 f2be a300 8b3e 986d 11bf
000001a0: e50b 1cbf 4fe6 113f 308e 28bf 53c6 19bf
000001b0: d288 4dbe a44d 0d3f 56a6 02bf ffa0 183f
000001c0: 06b4 333f 7b30 003f 13d7 ca3e fe8a 33be
000001d0: c603 23bf 5341 80be 2a4b 093f 5a86 20bf
000001e0: 90ee 323f 0573 813e b462 3dbf 8749 5e3f
000001f0: cdd7 39bf f27f ad3e 7944 aa3e 1c73 4cbf
00000200: 8387 54bf a4f2 693f 93b9 1abe 726c a2be
00000210: ee0a f1be cf2b f83e 7b04 18bf 58ab cf3e
00000220: 1144 283f 7007 61bf 4df1 cd3e 2cd3 413f
00000230: 65e7 1f3e 1048 20bf e3bf 413f 903d f4be
00000240: 1fac 1ebf 184d 50bf 4ba3 02bf 6af8 8b3e
00000250: 2ae4 ab3e ef67 e53e 2b3a 13bf 6187 4b3f
00000260: d190 10bf 0083 d6be cc46 bc3e fd8d f5be
00000270: 6459 b73e e910 b7be 447b bebe cce2 e33e
00000280: 6040 463e b18f f83e b4b3 5cbf b188 9fbe
00000290: 50da 3abe d9a6 4b3d e230 edbd 276b ad3e
000002a0: 3b17 073f 4b63 14bd 296b f43e b506 b13e
000002b0: 2904 213f 1d06 37bf 3385 1d3f 6e5c ecbe
000002c0: 07aa b0bd 1635 0bbe 03c0 aebe 5833 06bf
000002d0: 0f03 363f 5969 a53e 0213 53be a113 3b3e
000002e0: 471e eebe 6db2 a7be 8650 f7bd 6534 f9bd
000002f0: 69c9 053f ec64 d0be e1c0 08bf d9c6 f43e
00000300: 87c6 77bd 17be 7d3e 4f14 44bf a3a5 19bf
00000310: 8ec0 47be 9c2e 7e3e d3b4 3bbf 0986 013f
00000320: 5ec0 193f 0b6e 19bf b724 823e 9040 393f
00000330: 875c 1c3f 806e d8be 7b8f 183f 00f4 10bf
00000340: 651c 0bbf 0737 60be fe7f e1be 0ddf c0be
00000350: a935 783e 79f4 543e d157 7abe dde4 233f
00000360: 2d1f 23bf 42b4 34be c6aa 163f e153 dcbe
00000370: 7b72 a93e 9195 10bf 3f2d 46bf bc89 203f
00000380: 95ab 0e3f 5009 48bc d74a ecbe d272 27bf
00000390: cd97 ebbe 0cd6 13be cd72 aa3d 0d26 02bf
000003a0: 95c9 793d ed76 413e 082f a43e 9a12 8b3d
000003b0: 40bf 443f dfad 0fbf a233 993e 9081 893d
000003c0: 8c9d a13d d2a7 e6bd cbf4 06bf 1382 19bf
000003d0: ad88 353e e1a6 fb3e 650c 61bd d0dc 563e
000003e0: e434 54be 178d f9be 4ef4 e8be 9e17 793e
000003f0: e61d c63e 05c8 a3be d200 08be 7208 c13d

transformer.encoder.layers.0.self_attn.out_proj.bias f4 [32]
-0.55443037 -0.48221934 0.387976 0.53946394 -0.5869491 -0.40351355 -0.47190818 -0.12988392
-0.2597189 0.67877257 0.58916533 0.59231615 0.37132758 -0.50560695 -0.30538929 0.36174902
0.48138592 0.48841926 -0.557341 -0.43980923 -0.39913735 0.1333486 0.11750078 -0.3746793
-0.3130441 0.47691602 0.5186538 0.5455974 0.49834245 -0.581054 0.6060889 0.51829445
00000000: 26ef 0dbf 74e5 f6be caa4 c63e 4f1a 0a3f
00000010: 4c42 16bf 5499 cebe f39d f1be 4a00 05be
00000020: e0f9 84be 0ac4 2d3f 8ad3 163f 08a2 173f
00000030: a61e be3e 756f 01bf fc5b 9cbe 2b37 b93e
00000040: 3778 f63e 1712 fa3e e6ad 0ebf ad2e e1be
00000050: bb5b ccbe 898c 083e 40a4 f03d f7d5 bfbe
00000060: 5147 a0be 562e f43e 7fc6 043f 45ac 0b3f
00000070: be26 ff3e f4bf 14bf a428 1b3f f2ae 043f

transformer.encoder.layers.0.linear1.weight f4 [5, 32]
0.9865837 0.15852712 0.20477246 0.8897708 -0.13482292 -0.63201165 0.18795438 0.2729112
-0.00035773407 0.5465518 -0.04000126 -1.0487932 -0.6272987 -0.3166023 1.0658138 -0.916646
0.18444678 1.0353147 -0.38733602 -0.24253626 0.61252767 -0.22704369 0.9456214 -0.23120372
-0.48910803 0.6132678 -0.14319526 0.29170516 0.2830397 -0.94527054 0.44758683 -0.371969
0.43948907 0.48952365 0.4133616 0.4262143 0.27605656 -0.65502584 0.7435975 -0.21505553
0.34514657 -0.3254758 0.68550104 -0.8272018 -0.8417779 -0.77747184 0.43457052 -0.84650934
0.18045948 0.8249909 -0.0853368 -0.61271065 0.30533516 -0.41406432 0.29340565 -0.48228353
-0.47690186 -0.14554693 -0.7499119 -0.4170469 -0.19249834 -0.16347617 0.7018442 -0.5288895
-0.6263743 -0.71085757 -0.5640041 -0.5876647 -0.46483064 0.6619913 -0.79795045 0.308758
-0.29716823 -0.15252511 -0.7504023 0.6201548 0.80882657 0.6780776 -1.0331165 0.74883175
-0.609675 -0.052683838 0.4338771 0.74763906 -0.54222846 0.53705466 -0.928833 0.79427236
0.15350208 0.67178226 0.48518422 0.4223517 0.5302118 0.7141339 -0.61164576 0.59852284
0.023455482 -0.20877537 0.07156486 0.08139081 -0.4451211 -0.19448347 -0.011951766 -0.8297394
-0.09413121 0.09221578 0.29642546 -0.15221018 -0.073705144 -0.012096906 -0.4856368 0.2133612
0.10310369 0.3747571 -0.2085227 0.15959497 0.1415701 -0.11296762 0.016264055 -0.3224373
0.13888521 -0.49989367 0.34309533 0.34386677 0.27874002 -0.3180268 -0.16848834 0.30222842
0.04762394 -0.49098733 0.8258587 0.16447482 -0.7993778 0.89876825 -0.23661 0.7627491
-0.76419276 -0.45321712 -0.36832616 0.55219537 0.6943561 0.750354 -0.49236834 0.23199521
-0.047983956 -0.7327308 -0.5291866 0.112340435 -0.85775626 0.2557756 -0.0691871 0.8642981
0.3445824 -0.7693518 0.5321476 1.044522 0.5392921 0.7507748 -0.215726 0.59020525
00000000: c090 7c3f ef54 223e dfaf 513e 05c8 633f
00000010: 050f 0abe 84cb 21bf 1d77 403e 04bb 8b3e
00000020: 418e bbb9 d2ea 0b3f 5cd8 23bd db3e 86bf
00000030: a696 20bf b219 a2be 966c 883f 50a9 6abf
00000040: 9edf 3c3e 3185 843f e850 c6be 6d5b 78be
00000050: 9dce 1c3f 247e 68be 3e14 723f abc0 6cbe
00000060: 5e6c fabe 1eff 1c3f c7a1 12be 615a 953e
00000070: 94ea 903e 40fd 71bf 1a2a e53e b972 bebe
00000080: b604 e13e d8a2 fa3e 22a4 d33e c338 da3e
00000090: 4957 8d3e c6af 27bf 685c 3e3f 8437 5cbe
000000a0: 0db7 b03e c4a4 a6be ff7c 2f3f 7fc3 53bf
000000b0: c27e 57bf 6508 47bf 0780 de3e d6b4 58bf
000000c0: 5fca 383e 9b32 533f 0fc5 aebd 9bda 1cbf
000000d0: e454 9c3e 3d00 d4be 4439 963e deed f6be
000000e0: 7b2c f4be 410a 15be 3afa 3fbf 2c87 d5be
000000f0: 491e 45be 4c66 27be 10ac 333f 4d65 07bf
00000100: 115a 20bf c3fa 35bf 9362 10bf 3271 16bf
00000110: 48fe edbe 4378 293f 7b46 4cbf 8715 9e3e
00000120: 6f26 98be 8b2f 1cbe 5d1a 40bf 77c2 1e3f
00000130: 420f 4f3f 7e96 2d3f 293d 84bf 70b3 3f3f
00000140: a913 1cbf 02cb 57bd 2425 de3e 4665 3f3f
00000150: 7ccf 0abf 6a7c 093f 00c8 6dbf 6f55 4b3f
00000160: a62f 1d3e ecf9 2b3f 116a f83e 7b3e d83e
00000170: f6bb 073f 7bd1 363f d194 1cbf cb38 193f
00000180: b625 c03c 36c9 55be 9990 923d 3ab0 a63d
00000190: eae6 e3be ad26 47be 57d1 43bc cd69 54bf
000001a0: ddc7 c0bd a0db bc3d 14c5 973e fcdc 1bbe
000001b0: b9f2 96bd 1a32 46bc 63a5 f8be 5c7b 5a3e
000001c0: 0728 d33d 2ae0 bf3e fa86 55be dd6c 233e
000001d0: c1f7 103e 915b e7bd 323c 853c 8016 a5be
000001e0: ed37 0e3e 10f2 ffbe 31aa af3e 4e0f b03e
000001f0: 03b7 8e3e 69d4 a2be 3588 2cbe afbd 9a3e
00000200: 5211 433d b162 fbbe 7a6b 533f 166c 283e
00000210: 06a4 4cbf ad15 663f e449 72be 8643 433f
00000220: 23a2 43bf 130c e8be 3f95 bcbe ad5c 0d3f
00000230: 52c1 313f 3317 403f b417 fcbe 2790 6d3e
00000240: d38a 44bd 3f94 3bbf c678 07bf be12 e63d
00000250: ea95 5bbf 05f5 823e f7b1 8dbd a442 5d3f
00000260: 1b6d b03e 3df4 44bf d33a 083f e6b2 853f
00000270: 0c0f 0a3f c732 403f 47e7 5cbe b117 173f

transformer.encoder.layers.0.linear1.bias f4 [5]
-0.15395029 -0.44761363 0.6438866 0.05617823 0.53092456
00000000: 25a5 1dbe 9d2d e5be c1d5 243f 251b 663d
00000010: acea 073f

transformer.encoder.layers.0.linear2.weight f4 [32, 5]
-0.796926 -0.17188533 -0.19236462 -0.283033 -0.56751394 0.6615961 0.63678575 -0.7553562
-0.42456597 -0.10068347 -0.606483 0.6573099 0.5179952 0.2765122 0.32144982 0.5459293
0.23359704 0.3769152 0.417091 0.32289714 -0.8396963 -0.45160514 -0.96882087 -0.7497225
-0.1956918 -0.35709515 -0.83130085 -0.7419113 -0.2705273 -0.75491416 -0.3659091 -0.20894492
-0.8170917 -0.24957086 -0.8576578 -0.5199083 -0.6758072 -0.0027028366 0.1170659 -0.41409892
-0.70116013 0.047503617 0.2805005 -0.3051626 -0.46415892 0.84733856 -0.32416752 -0.23953116
0.8712068 0.66573584 0.28096515 0.9705197 0.26849383 0.5357947 0.94557935 0.6270401
-0.61005974 -0.15938593 0.73592925 0.9607223 -0.5167972 0.028201584 0.3703643 0.11518362
0.25362462 0.46020383 -0.2554869 -0.7898666 -0.6477662 -0.9133514 -0.010766323 -0.21693666
-0.48142877 0.008755473 -0.44473815 0.5013232 0.46780857 -0.17430286 0.4515086 0.33427456
0.003425938 0.7217535 0.11986402 0.64241487 0.32814243 0.826521 0.8456773 0.2079483
0.77049416 0.24577992 0.13817072 -0.47974473 -0.47053593 -0.7793529 -0.6896405 0.33622834
-0.6159855 -0.44370213 -0.24702778 -0.29319644 -0.7634591 -0.2513846 -0.069565155 0.023006761
-0.5540874 0.40698972 0.011222357 0.25261495 0.5686513 0.16609251 -0.17882678 0.22219181
0.6152656 0.17790107 0.34001392 0.25183037 -0.11724435 -0.565316 -0.28745592 -0.17893408
-0.061507855 -0.68231124 -0.36995006 0.35723832 -0.08825264 0.5822611 0.78258526 0.8262799
0.49274996 -0.28537804 0.3089519 -0.5783461 0.24698094 0.23093934 0.42078024 -0.19185606
0.11156464 0.3711327 0.28456926 0.4798199 0.9725411 0.75008255 0.41413644 0.472533
0.26427868 -0.287354 -0.16397218 -0.81377685 -0.7676706 -0.8857308 0.4075458 0.43956098
0.5798492 0.45222968 0.47582456 0.80075824 0.27466676 0.6915312 0.56887394 0.8014861
00000000: 5803 4cbf b502 30be 3bfb 44be b4e9 90be
00000010: 9848 11bf 5d5e 293f 6404 233f 065f 41bf
00000020: b660 d9be 2333 cebd 7842 1bbf 7645 283f
00000030: 559b 043f 0293 8d3e 1295 a43e 06c2 0b3f
00000040: 1034 6f3e 07fb c03e f48c d53e c652 a53e
00000050: 56f6 56bf ca38 e7be a504 78bf d0ed 3fbf
00000060: 6e63 48be 2dd5 b6be 22d0 54bf e6ed 3dbf
00000070: 8e82 8abe 0e42 41bf 7058 bbbe a8f5 55be
00000080: ec2c 51bf 818f 7fbe 768f 5bbf b618 05bf
00000090: b301 2dbf 1322 31bb 3fc0 ef3d c604 d4be
000000a0: 3b7f 33bf 2793 423d c39d 8f3e 463e 9cbe
000000b0: 3da6 edbe 2eeb 583f 49f9 a5be a847 75be
000000c0: 6907 5f3f aa6d 2a3f aada 8f3e fb73 783f
000000d0: 0678 893e d729 093f 7d11 723f b385 203f
000000e0: e02c 1cbf 1136 23be dc65 3c3f e6f1 753f
000000f0: d24c 04bf 0207 e73c 64a0 bd3e 64e5 eb3d
00000100: 16db 813e d69f eb3e 2ecf 82be b334 4abf
00000110: 01d4 25bf 66d1 69bf 3b65 30bc a524 5ebe
00000120: d57d f6be 1e73 0f3c b8b4 e3be b856 003f
00000130: 9b84 ef3e 737c 32be 232c e73e 0926 ab3e
00000140: b485 603b d6c4 383f 447b f53d 4d75 243f
00000150: 4902 a83e e196 533f 4f7e 583f 66f0 543e
00000160: 1b3f 453f bbad 7b3e a07c 0d3e 1aa1 f5be
00000170: 16ea f0be ac83 47bf 488c 30bf 1f26 ac3e
00000180: 3ab1 1dbf ed2c e3be daf4 7cbe d81d 96be
00000190: 0e72 43bf 7bb5 80be 2d78 8ebd ad78 bc3c
000001a0: acd8 0dbf f560 d03e fadd 373c bf56 813e
000001b0: 2293 113f 2814 2a3e 5e1e 37be 4086 633e
000001c0: 0c82 1d3f b32b 363e 4e16 ae3e e9ef 803e
000001d0: ce1d f0bd 8db8 10bf 6c2d 93be 7f3a 37be
000001e0: a9ef 7bbd f3ab 2ebf 186a bdbe f1e7 b63e
000001f0: cdbd b4bd 100f 153f 8257 483f 1487 533f
00000200: b949 fc3e 121d 92be f22e 9e3e 7d0e 14bf
00000210: 92e8 7c3e 5d7b 6c3e 8270 d73e ea75 44be
00000220: 017c e43d 1b05 be3e 10b3 913e f4aa f53e
00000230: 74f8 783f 6905 403f b109 d43e d8ef f13e
00000240: 894f 873e 1020 93be 53e8 27be ae53 50bf
00000250: 0f86 44bf 41bf 62bf d8a9 d03e 230e e13e
00000260: ff70 143f a68a e73e 479f f33e 7efe 4c3f
00000270: 1fa1 8c3e 3008 313f b9a1 113f 312e 4d3f

transformer.encoder.layers.0.linear2.bias f4 [32]
-0.9720062 -0.1380196 0.4538525 0.4164921 -0.54451376 -0.30673417 -0.70524424 -0.119000115
-0.41172075 0.99415916 0.50487375 0.23761809 0.7306242 -0.6707412 -0.36360455 0.5547372
0.27680635 0.7341943 -0.70526403 -0.6681347 -0.0021239903 0.22208226 -0.07416482 -0.41477895
-0.234703 0.7228732 0.13642117 0.8709056 0.81221926 -0.64796734 0.9926162 0.7030877
00000000: 66d5 78bf 0355 0dbe 5b5f e83e 743e d53e
00000010: 4165 0bbf 430c 9dbe e38a 34bf 55b6 f3bd
00000020: 10cd d2be 3781 7e3f 683f 013f 2852 733e
00000030: 300a 3b3f b2b5 2bbf 602a babe 4203 0e3f
00000040: 90b9 8d3e 28f4 3b3f 2f8c 34bf e00a 2bbf
00000050: a532 0bbb 8869 633e bae3 97bd e85d d4be
00000060: fc55 70be 380e 393f feb1 0b3e abf3 5e3f
00000070: 9aed 4f3f 30e1 25bf 181c 7e3f 8efd 333f

transformer.encoder.layers.0.norm1.weight f4 [32]
1.5316342 1.2627378 0.51135075 0.4811656 1.2909299 0.55002373 1.4597843 0.22363311
1.4937218 0.45577466 0.40815735 1.4984689 1.0743449 0.3075453 1.1180195 1.259443
0.5064054 0.5200411 0.82666683 0.40488112 1.368657 0.82866305 0.55248064 0.58013606
0.7499525 1.5201039 1.0149419 1.5035299 1.484661 0.4582112 0.3610732 1.5296643
00000000: 970c c43f 64a1 a13f e2e7 023f 565b f63e
00000010: 313d a53f 5bce 0c3f 36da ba3f 1400 653e
00000020: 4732 bf3f 4c5b e93e 00fa d03e d4cd bf3f
00000030: 2284 893f 9476 9d3e 431b 8f3f 6e35 a13f
00000040: c9a3 013f 6a21 053f 70a0 533f 944c cf3e
00000050: 2730 af3f 4323 543f 5f6f 0d3f cc83 143f
00000060: e3fc 3f3f c492 c23f 9ee9 813f ab73 c03f
00000070: 5f09 be3f a99a ea3e 96de b83e 0acc c33f

transformer.encoder.layers.0.norm1.bias f4 [32]
-0.57105184 -0.1770846 0.3716865 0.5335213 -0.5900779 -0.41041112 -0.4754837 -0.10400377
-0.2067827 0.7488481 0.5767517 0.5580381 0.33277485 -0.48493147 -0.25554633 0.32390627
0.47322145 0.49860132 -0.5557732 -0.5148043 -0.38089022 -0.024148094 0.26135492 -0.36239913
-0.32459128 0.47394434 0.37334028 0.5218248 0.49412683 -0.58655167 0.6287626 0.5211649
00000000: 7430 12bf aa55 35be b14d be3e da94 083f
00000010: 580f 17bf 6821 d2be 9972 f3be eeff d4bd
00000020: d8be 53be 82b4 3f3f 00a6 133f 96db 0e3f
00000030: 7761 aa3e f048 f8be f8d6 82be 0bd7 a53e
00000040: 154a f23e ac48 ff3e 2747 0ebf 37ca 03bf
00000050: 0b04 c3be 39d2 c5bc 50d0 853e 618c b9be
00000060: d430 a6be d5a8 f23e 7526 bf3e 4f96 053f
00000070: 31fe fc3e 4028 16bf 96f6 203f 106b 053f

transformer.encoder.layers.0.norm2.weight f4 [32]
1.5198973 1.4217751 0.32696065 0.47197494 1.6353526 0.54552317 1.453216 0.27257982
1.6595594 0.4942748 0.38622648 1.3753104 1.18397 0.9657159 1.0879892 1.0416431
0.49810532 0.54976815 1.0358748 0.33356327 1.292526 0.8763159 0.6786353 0.52941805
0.7909093 1.5254265 0.82332635 1.5449618 1.5130595 0.52263355 0.34542185 1.5318316
00000000: ff8b c23f bafc b53f 6367 a73e b3a6 f13e
00000010: 3c53 d13f 68a7 0b3f fb02 ba3f 958f 8b3e
00000020: 716c d43f 9611 fd3e 7abf c53e 2c0a b03f
00000030: 548c 973f 2839 773f 3b43 8b3f 9054 853f
00000040: a907 ff3e 9bbd 0c3f 8c97 843f cec8 aa3e
00000050: 7e71 a53f 3d56 603f 0bbb 2d3f f187 073f
00000060: 0879 4a3f 2d41 c33f 84c5 523f 4fc1 c53f
00000070: efab c13f 50cb 053f 22db b03e 0f13 c43f

transformer.encoder.layers.0.norm2.bias f4 [32]
-0.55866975 -0.32149243 0.3494887 0.5427373 -0.5866961 -0.41124937 -0.4719556 -0.07228908
-0.7077248 0.22055088 0.64212465 0.21959028 0.30473423 -0.5609476 -0.19652614 0.17057575
0.4756034 0.48982495 -0.5577283 -0.5769448 -0.38744852 0.015084661 0.12115409 -0.37051475
-0.25737563 0.51270807 0.34152463 0.53652817 0.5026526 -0.58816475 0.6515103 0.527478
00000000: fb04 0fbf a89a a4be 2ff0 b23e d5f0 0a3f
00000010: b731 16bf 478f d2be 2aa4 f1be 4c0c 94bd
00000020: 742d 35bf 17d8 613e 4862 243f 46dc 603e
00000030: 2006 9c3e 439a 0fbf 263e 49be 69ab 2e3e
00000040: 4a82 f33e 56ca fa3e 48c7 0ebf a8b2 13bf
00000050: a75f c6be a725 773c a31f f83d 1cb4 bdbe
00000060: bdc6 83be d640 033f 51dc ae3e e959 093f
00000070: d7ad 003f f791 16bf 61c9 263f cc08 073f
