emgforcetransformer/model_saves/emg_force_transformer_20240920_215125.pth (torch, 70805 bytes, 69 tensors)

object_queries f4 [5, 8]
-0.5375406 1.1290507 -0.5857893 -0.61100906 -1.7056865 1.0012202 1.5767417 0.3298285
1.2548666 -0.54643965 -0.41772595 1.0131078 -1.6204505 0.40548265 -0.67783225 -0.451062
1.461121 0.81490064 0.4320197 -0.6156548 -0.8937056 -0.24952245 -0.49514177 -0.05255939
0.6072476 1.225371 0.43956923 -0.86200947 0.5125342 -0.7864052 -0.932709 -0.94192654
0.57772195 -2.808056 -1.4556065 0.25862044 1.9932239 0.9334049 0.65159756 -0.67013574
00000000: 439c 09bf bc84 903f 4af6 15bf 176b 1cbf
00000010: ef53 dabf fc27 803f acd2 c93f 48df a83e
00000020: 789f a03f 78e3 0bbf 2de0 d5be 84ad 813f
00000030: ec6a cfbf 6c9b cf3e 6a86 2dbf 99f1 e6be
00000040: 0306 bb3f 549d 503f b031 dd3e 8e9b 1dbf
00000050: e4c9 64bf d082 7fbe 3983 fdbe 8448 57bd
00000060: 9474 1b3f f5d8 9c3f 380f e13e a7ac 5cbf
00000070: 7135 033f da51 49bf 04c6 6ebf 1922 71bf
00000080: 96e5 133f 31b7 33c0 5051 babf e669 843e
00000090: f621 ff3f a0f3 6e3f 19cf 263f 048e 2bbf

input_projection.weight f4 [8, 1024]
-0.020932905 -0.044075556 -0.02170824 -0.0026539364 -0.008020147 -0.020182634 -0.058758717 -0.008040864
-0.012158965 0.0023460537 0.008442942 0.018710615 -0.043051027 -0.009760713 -0.026774447 -0.041436702
0.011674869 0.03438594 0.008083954 0.007071396 0.03011444 0.00590294 -0.035207424 -0.026532661
-0.07255991 -0.023889318 -0.043537546 -0.030253628 -0.058472045 -0.022349905 -0.069564626 -0.062610514
-0.073143736 -0.062457334 -0.073043466 -0.067756996 -0.086606756 -0.031013409 -0.009714089 0.03499687
0.065816805 0.03249216 0.06481737 0.057728965 0.061041996 0.09490474 0.055372555 0.09130199
0.035371155 0.046405006 0.046281658 0.013953545 0.0013116507 -0.051352553 0.020388164 0.042761818
0.041804813 -0.02122176 -0.06675848 -0.06799448 -0.03408206 -0.045422107 -0.009299144 0.010883721
0.028130993 0.026162611 0.037228048 -0.010931767 -0.03165624 -0.020324115 -0.018681774 0.012743333
0.024862496 0.07598968 0.035693564 0.0552934 0.07256651 0.0622879 0.093605034 0.08249911
0.0854537 0.022989454 0.042533014 0.0140134655 0.06015648 0.0010944398 0.013321009 -0.06698265
-0.042072296 -0.08957155 -0.04494813 -0.026986187 -0.014702385 -0.012912447 -0.041753747 -0.07898373
-0.0829187 -0.05562154 -0.102385215 -0.12795517 -0.111083016 -0.033418607 -0.021979755 0.020679314
0.02521325 0.046038244 0.017472118 0.05519644 0.006722814 -0.008002192 0.038911115 0.017231613
0.040995624 -0.010285445 7.112171e-05 -0.04864559 0.016231727 0.032157376 -0.01768366 -0.015612086
-0.020884436 0.0100555895 0.04802647 -0.0018798508 0.05084514 0.07883958 0.08765802 0.08897372
0.071807444 0.025400737 -0.010992788 0.006126099 -0.03097199 -0.033740316 -0.042887773 -0.029291239
0.007063312 0.039130837 0.013749566 -0.036653504 -0.05832881 -0.042952 -0.03296101 -0.01366733
-0.047929898 -0.049179133 0.033931106 0.06545646 0.09946003 0.039908364 0.0023592017 0.038157526
0.030942826 0.04187342 0.05687511 0.034102987 0.04080768 0.054900415 0.0449407 0.07794437
0.03718189 0.029469386 0.02374407 -0.022657288 -0.00911037 -0.04592145 -0.058222685 -0.045869604
-0.009768927 -0.005763296 -0.013871853 -0.031704698 0.0019608086 -0.035989184 -0.055967093 -0.09489592
-0.08531305 -0.071387775 -0.09920732 -0.052510936 -0.055749293 -0.0347916 -0.013791753 -0.032003712
-0.011639045 -0.020973189 0.007883952 0.057294864 0.03978673 0.055167545 0.020400634 0.01562705
-0.011834484 -0.025426673 -0.020627365 -0.0103457915 -0.025331765 0.010410018 0.011603632 0.0197451
-0.008336111 -0.007404617 -0.05046726 -0.05318636 -0.018501779 -0.010923623 -0.004502136 0.034685943
0.070838735 0.08185089 0.114867575 0.12426309 0.07912145 0.058880694 0.065877184 0.059735414
0.002440836 0.0042857337 0.006529213 0.03435986 -0.0077036903 -0.008828002 0.010720861 -0.008874301
-0.04405811 -0.025581393 -0.044548992 -0.09431694 -0.105201565 -0.060523257 -0.06816728 -0.043593243
-0.046547942 -0.016842704 -0.019170139 0.0671642 0.11025843 0.12530355 0.049980782 0.06077864
-0.035677277 -0.038846698 -0.064668 -0.037594214 0.0055006174 0.007512397 -0.03704997 -0.05418264
-0.088040225 -0.08784826 -0.072279505 -0.13266794 -0.13833877 -0.14682753 -0.09672678 -0.119626515
00000000: 7c7b abbc 9288 34bd 7bd5 b1bc aaed 2dbb
00000010: ef66 03bc 0d56 a5bc fbac 70bd d4bd 03bc
00000020: 6536 47bc 40c0 193b 4454 0a3c 0147 993c
00000030: 4656 30bd 66eb 1fbc 1656 dbbc 88b9 29bd
00000040: f347 3f3c 45d8 0c3d 9072 043c 2bb7 e73b
00000050: 8fb2 f63c 736d c13b a935 10bd 065b d9bc
00000060: 4a9a 94bd 88b3 c3bc 6d54 32bd 75d6 f7bc
00000070: 6280 6fbd 2617 b7bc e677 8ebd f139 80bd
00000080: 62cc 95bd 43d3 7fbd d097 95bd 2ec4 8abd
00000090: e25e b1bd d50f febc d827 1fbc e158 0f3d
000000a0: f6ca 863d 8016 053d f8be 843d 3575 6c3d
000000b0: 2c07 7a3d 6b5d c23d 55ce 623d 8afc ba3d
000000c0: 58e1 103d 2d13 3e3d d691 3d3d 699d 643c
000000d0: b2eb ab3a 0e57 52bd 1405 a73c 0427 2f3d
000000e0: 863b 2b3d 42d9 adbc acb8 88bd b140 8bbd
000000f0: a199 0bbd 880c 3abd 705b 18bc a251 323c
00000100: f872 e63c f952 d63c 707c 183d 271b 33bc
00000110: f9a9 01bd c27e a6bc 850a 99bc 6ac9 503c
00000120: 6fac cb3c 7aa0 9b3d 6a33 123d 557b 623d
00000130: c09d 943d 9921 7f3d ffb3 bf3d 4bf5 a83d
00000140: 5902 af3d 6154 bc3c 1937 2e3d bc98 653c
00000150: a466 763d 4e73 8f3a 5d40 5a3c 332e 89bd
00000160: 0054 2cbd 4a71 b7bd 881b 38bd 2312 ddbc
00000170: 46e2 70bc ba8e 53bc fa05 2bbd 39c2 a1bd
00000180: 48d1 a9bd 69d3 63bd 57af d1bd ae06 03be
00000190: 7e7f e3bd f3e1 08bd e30e b4bc aa67 a93c
000001a0: 058c ce3c 9992 3c3d b021 8f3c aa15 623d
000001b0: 0d4b dc3b a01b 03bc 4361 1f3d 5029 8d3c
000001c0: 07eb 273d 4884 28bc 2d27 9538 9940 47bd
000001d0: 66f8 843c 74b7 033d 53dd 90bc d6c9 7fbc
000001e0: d615 abbc 33c0 243c 67b7 443d 5365 f6ba
000001f0: fe42 503d a576 a13d 0c86 b33d db37 b63d
00000200: c80f 933d 3515 d03c 181b 34bc 71bd c83b
00000210: f9b8 fdbc 4933 0abd 17ab 2fbd 2ef4 efbc
00000220: 5b73 e73b a847 203d dc45 613c fc21 16bd
00000230: 31ea 6ebd 70ee 2fbd 2002 07bd f0ec 5fbc
00000240: 2452 44bd 0f70 49bd 58fb 0a3d 090e 863d
00000250: b3b1 cb3d f476 233d d69c 1a3b 114b 1c3d
00000260: cf7b fd3c 7783 2b3d e0f5 683d 93af 0b3d
00000270: f425 273d 42df 603d bd13 383d 4ca1 9f3d
00000280: 0a4c 183d c869 f13c ed82 c23c c79b b9bc
00000290: a943 15bc 2118 3cbd e97a 6ebd c4e1 3bbd
000002a0: d90d 20bc 08da bcbb c546 63bc c9dc 01bd
000002b0: e980 003b 6569 13bd c03d 65bd cb58 c2bd
000002c0: 9cb8 aebd c133 92bd 352d cbbd b515 57bd
000002d0: 5f59 64bd a381 0ebd cef6 61bc 5316 03bd
000002e0: b1b1 3ebc f7cf abbc b12b 013c 05ae 6a3d
000002f0: 69f7 223d 5df7 613d 3b1f a73c 4d04 803c
00000300: 6ce5 41bc 994b d0bc b8fa a8bc 6581 29bc
00000310: 9084 cfbc c88e 2a3c 291d 3e3c 7ac0 a13c
00000320: 2f94 08bc 6ea2 f2bb c2b6 4ebd f1d9 59bd
00000330: 0b91 97bc fff8 32bc a786 93bb d912 0e3d
00000340: e613 913d 70a1 a73d b13f eb3d a67d fe3d
00000350: 6d0a a23d e22c 713d 9eea 863d 1fad 743d
00000360: 6ff6 1f3b 576f 8c3b 02f3 d53b edbc 0c3d
00000370: 3d6f fcbb 53a3 10bc 8da6 2f3c 8465 11bc
00000380: 4776 34bd 1290 d1bc 0179 36bd 3d29 c1bd
00000390: eb73 d7bd 3ce7 77bd 499b 8bbd d48e 32bd
000003a0: 0ea9 3ebd b6f9 89bc b20a 9dbc 628d 893d
000003b0: 2ccf e13d 934f 003e a6b8 4c3d 06f3 783d
000003c0: 5622 12bd b71d 1fbd a870 84bd 64fc 19bd
000003d0: 863e b43b 8e2a f63b b6c1 17bd 9eee 5dbd
000003e0: 6f4e b4bd cae9 b3bd 4707 94bd 1bda 07be
000003f0: aea8 0dbe f559 16be b118 c6bd bffe f4bd

input_projection.bias f4 [8]
0.12144588 -0.040237773 -0.15151592 -0.15609297 -0.05159215 -0.0971957 0.12793237 0.054619253
00000000: 9eb8 f83d 5dd0 24bd fd26 1bbe d6d6 1fbe
00000010: 4a52 53bd 8a0e c7bd b400 033e 70b8 5f3d

output_projection.weight f4 [50, 8]
-0.19932632 -0.21454817 -0.07452995 0.23428883 -0.10614762 -0.12653072 -0.10589323 -0.22529301
0.2042492 0.11690103 -0.03955916 -0.17777331 0.30621368 0.25630826 0.19386922 0.058105107
-0.1564961 -0.2874011 -0.07414323 -0.17767036 -0.22519013 -0.15361062 -0.13952407 -0.28704286
-0.12960517 -0.01789164 0.08815604 0.19301392 -0.06285607 0.070304744 -0.07266834 -0.17205799
-0.14108813 -0.21452203 -0.048280805 0.0025102885 -0.17186093 -0.057920456 -0.12298878 -0.11053107
-0.088151984 0.10331454 0.18714969 0.13282956 0.092237815 0.019188672 0.059605587 -0.008166093
0.14124684 0.10703907 -0.34360206 -0.19178623 -0.003704041 -0.21644238 -0.14242119 0.18608268
-0.08034444 0.22654748 0.21715604 0.2569602 -0.052145846 0.017900309 -0.030735128 0.22559044
0.15433481 0.23548742 -0.23070636 -0.22890788 -0.1863172 -0.051052902 -0.20044969 -0.0029471226
0.14293036 0.3777816 -0.09351854 -0.1277195 0.24115133 0.20882937 0.21148546 0.025820509
0.0018189346 0.04439383 0.17611896 -0.032630872 0.19934565 0.21585196 -0.09548974 -0.1690758
0.012919206 0.00020971311 0.16815329 -0.060687277 -0.07735416 -0.022054104 -0.031688794 0.2148845
0.08863577 -0.008060408 0.06257566 -0.05497017 0.030923305 0.09773063 -0.019341635 0.057962686
-0.14159821 -0.21829551 0.039613046 0.114891544 -0.34194243 -0.20299563 -0.16333649 -0.14255078
-0.366521 -0.20644565 0.1551914 0.20322669 -0.2016442 0.091576844 -0.087949 0.04035771
0.16984485 0.074266806 0.24563888 -0.11167481 0.027087832 -0.069998026 0.15328228 -0.21735592
0.13138655 -0.01863102 0.06756048 -0.23392981 0.0133191515 -0.12409649 0.0027056902 0.0416878
0.07024104 -0.052181344 0.059198003 0.019851582 -0.19114041 0.06251528 -0.03243893 -0.16340469
0.06885015 0.20580384 -0.29731435 0.0134106465 -0.06386211 0.050290447 -0.24716806 0.08248454
-0.16652194 -0.112011604 -0.07614064 0.33669576 -0.20344077 0.17897424 -0.31194672 0.17615345
0.01224986 -0.26221249 -0.02425291 -0.033649486 -0.28304434 -0.10448289 -0.070243604 -0.22596155
0.063591264 0.11178071 -0.13049582 0.09552636 -0.0652007 0.11852471 -0.030660689 -0.14569686
-0.032728907 0.20646235 0.03535774 -0.26347336 0.01605701 -0.27211076 0.10201917 -0.031179864
-0.1725615 0.04369395 0.12681204 -0.014882069 0.14927211 0.1609246 0.08965839 -0.19594553
-0.06943105 0.100619376 -0.14282566 0.24281669 0.06095409 0.1418947 -0.18057309 0.2467908
-0.11680271 -0.15836751 0.23601648 -0.016913323 -0.022141475 -0.04732206 0.04636282 0.17561089
-0.027042933 0.17946301 0.052674 -0.14507845 0.0014379708 0.057280667 -0.055182725 -0.015603886
-0.16035204 -0.085093044 -0.16113272 -0.28461403 -0.104892775 -0.18748327 0.020749906 -0.21744306
0.15823299 0.11529569 0.22844887 -0.1894007 0.17565146 -0.2430519 0.29390833 -0.04526281
-0.2048523 -0.11835303 -0.09741859 0.13734011 -0.09037248 0.15898158 -0.22766146 -0.1513134
-0.035997853 0.17602408 0.056424987 0.0054787407 -0.2748956 -0.22961447 -0.14042906 -0.121284604
-0.1602011 0.011012983 0.1789984 -0.07871491 0.21341507 -0.10421516 0.18263212 0.09880763
00000000: 331c 4cbe 84b2 5bbe 29a3 98bd 69e9 6f3e
00000010: ec63 d9bd 4591 01be 8dde d8bd 36b3 66be
00000020: b426 513e cf69 ef3d c908 22bd 350a 36be
00000030: 0ac8 9c3e d63a 833e a785 463e 9fff 6d3d
00000040: 8340 20be 3d26 93be 68d8 97bd 38ef 35be
00000050: 3e98 66be 1a4c 1dbe 66df 0ebe 48f7 92be
00000060: 38b7 04be 7d91 92bc 278b b43d 71a5 453e
00000070: afba 80bd effb 8f3d 23d3 94bd f82f 30be
00000080: 6879 10be aaab 5bbe 18c2 45bd a783 243b
00000090: 50fc 2fbe 003e 6dbd 8be1 fbbd 1d5e e2bd
000000a0: 0789 b4bd 9396 d33d 2ba4 3f3e 7904 083e
000000b0: 2ee7 bc3d 9031 9d3c fd24 743d 14cb 05bc
000000c0: 03a3 103e 4d37 db3d 9cec afbe 9c63 44be
000000d0: 7fbf 72bb 12a3 5dbe dcd6 11be 758c 3e3e
000000e0: a08b a4bd 10fc 673e 275e 5e3e 4a90 833e
000000f0: e296 55bd aba3 923c 3cc8 fbbc 2e01 673e
00000100: f209 1e3e 9d23 713e 4a3e 6cbe d466 6abe
00000110: f0c9 3ebe d91c 51bd af42 4dbe 8324 41bb
00000120: 565c 123e 976c c13e a686 bfbd e7c8 02be
00000130: 60f0 763e 5ed7 553e a58f 583e 8885 d33c
00000140: 5169 ee3a 4ed6 353d 8758 343e f3a7 05bd
00000150: 4421 4c3e 4c08 5d3e 2090 c3bd 3522 2dbe
00000160: 14ab 533c 6fe6 5b39 6030 2c3e 3993 78bd
00000170: dc6b 9ebd cfaa b4bc 1ccc 01bd af0a 5c3e
00000180: ac86 b53d cd0f 04bc ab27 803d 6728 61bd
00000190: df52 fd3c ff26 c83d 5972 9ebc 486a 6d3d
000001a0: 1fff 10be dc88 5fbe 4a41 223d 424c eb3d
000001b0: 1413 afbe 16de 4fbe ae41 27be d5f8 11be
000001c0: a4a8 bbbe 7d66 53be 7fea 1e3e a81a 503e
000001d0: d17b 4ebe a48c bb3d 9b1e b4bd 204e 253d
000001e0: cfeb 2d3e 3219 983d c288 7b3e c3b5 e4bd
000001f0: 4de7 dd3c 205b 8fbd 08f6 1c3e 8d92 5ebe
00000200: 328a 063e 15a0 98bc 265d 8a3d 4c8b 6fbe
00000210: 9238 5a3c 4d26 febd f351 313b d4c0 2a3d
00000220: 89da 8f3d 1bbc 55bd 9b79 723d c99f a23c
00000230: 50ba 43be 0308 803d afde 04bd 8f53 27be
00000240: 4f01 8d3d 3ebe 523e 9639 98be 54b8 5b3c
00000250: 23ca 82bd 5bfd 4d3d a019 7dbe a8ed a83d
00000260: ba84 2abe 5766 e5bd a0ef 9bbd 6363 ac3e
00000270: c752 50be 0645 373e 7bb7 9fbe 9261 343e
00000280: a3b3 483c b740 86be 0aae c6bc 0bd4 09bd
00000290: 30eb 90be 20fb d5bd e1db 8fbd 7762 67be
000002a0: 233c 823d 49ed e43d b2a0 05be 53a3 c33d
000002b0: f287 85bd 15bd f23d 202c fbbc 8f31 15be
000002c0: bf0e 06bd de6a 533e 47d3 103d fbe5 86be
000002d0: fe89 833c 1a52 8bbe 6def d03d ea6c ffbc
000002e0: f6b3 30be 6df8 323d 04db 013e ecd3 73bc
000002f0: cada 183e 6bc9 243e d19e b73d f2a5 48be
00000300: de31 8ebd 8811 ce3d e440 12be f0a4 783e
00000310: ffaa 793d d84c 113e 27e8 38be bab6 7c3e
00000320: 4236 efbd 182b 22be 4eae 713e cf8d 8abc
00000330: 0a62 b5bc c7d4 41bd f1e6 3d3d 57d3 333e
00000340: 2489 ddbc 27c5 373e b1c0 573d 728f 14be
00000350: 4b7a bc3a 229f 6a3d 4807 62bd 71a7 7fbc
00000360: 5333 24be 4345 aebd faff 24be eeb8 91be
00000370: 06d2 d6bd 9dfb 3fbe b5fb a93c 65a9 5ebe
00000380: d407 223e 2620 ec3d 80ee 693e 42f2 41be
00000390: fadd 333e 99e2 78be 277b 963e 7f65 39bd
000003a0: cdc4 51be 1363 f2bd 6683 c7bd e3a2 0c3e
000003b0: 3515 b9bd 11cc 223e 1620 69be e6f1 1abe
000003c0: 7c72 13bd a83f 343e e31d 673d 0287 b33b
000003d0: 1ebf 8cbe 0e20 6bbe a3cc 0fbe 1064 f8bd
000003e0: c20b 24be cc6f 343c 5b4b 373e 4835 a1bd
000003f0: 7b89 5a3e c26e d5bd ea03 3b3e a85b ca3d

output_projection.bias f4 [50]
-0.42231214 0.4353426 0.16574422 -0.1394171 0.06023293 -0.22899948 -0.09175406 -0.32570934
0.2579881 0.17087142 0.35647982 0.17111556 0.27786887 -0.19888628 -0.02898605 0.028471515
0.20251751 0.19812185 0.023840843 -0.011006236 0.12814268 0.0070707253 -0.17989613 0.09840734
-0.1564609 0.059050146 0.22374198 0.027509777 -0.2139169 0.12750143 -0.26307255 -0.22582702
-0.23968448 0.07410569 0.09933947 -0.15055515 0.015166284 -0.08858359 0.13046868 -0.1235051
0.36760968 0.21805547 0.1211761 0.06803902 0.18445972 -0.18757595 -0.13978007 0.12515773
0.15689717 -0.0100198155
00000000: 4c39 d8be 3ae5 de3e dab8 293e 5bc3 0ebe
00000010: ceb6 763d d77e 6abe 8de9 bbbd 60c3 a6be
00000020: 0417 843e ebf8 2e3e 8684 b63e eb38 2f3e
00000030: d444 8e3e d8a8 4bbe 2774 edbc 183d e93c
00000040: c060 4f3e 74e0 4a3e df4d c33c 8053 34bc
00000050: d637 033e 8bb1 e73b b136 38be ca89 c93d
00000060: 4937 20be 91de 713d 9e1c 653e 2f5c e13c
00000070: 080d 5bbe bc8f 023e 72b1 86be 333f 67be
00000080: d96f 75be b9c4 973d 7e72 cb3d 212b 1abe
00000090: 017c 783c 506b b5bd 9599 053e 3ef0 fcbd
000000a0: 5637 bc3e ef49 5f3e 2d2b f83d 0b58 8b3d
000000b0: 02e3 3c3e e913 40be 8222 0fbe 5929 003e
000000c0: a7a9 203e 272a 24bc

transformer.encoder.layers.0.self_attn.in_proj_weight f4 [24, 8]
0.07073797 0.4447316 0.0979687 0.10660022 0.34538946 0.21503778 -0.088177726 0.28947464
-0.10625776 -0.04596521 -0.40258384 -0.1250069 0.36385518 -0.39214957 -0.40724808 0.19496831
0.25076503 -0.032907862 -0.36720604 -0.16124439 0.19331308 0.27814135 0.2797202 -0.32135507
-0.2705071 -0.4425145 -0.011971203 0.24373016 0.06065203 0.5010746 0.52737254 -0.054496158
-0.46064526 0.09127845 -0.32846817 -0.21552241 0.113026194 -0.15258648 -0.119689114 -0.52694476
-0.3233026 -0.019213809 -0.30550024 0.018376524 0.1395026 -0.17850585 0.1470187 -0.32499567
0.32119477 0.10767735 -0.54492116 -0.43637982 -0.13588662 -0.31464115 -0.46968 -0.21179189
0.021204347 -0.119005024 0.38985747 0.18347044 0.37489972 0.0818307 -0.02201545 0.22363836
0.3466023 0.0207625 -0.15477745 -0.09277194 0.079870716 0.46224943 0.51319623 0.20846307
-0.3158264 -0.005971222 -0.17351073 0.23334718 0.24696225 -0.14225592 -0.3152582 -0.29657963
-0.22976969 -0.3820661 -0.06689256 -0.07058599 0.46634376 -0.1833513 0.05122112 0.3213021
0.3498648 0.29916704 -0.31032637 0.19251192 -0.21639465 0.42164588 0.39719942 0.34500402
-0.23676077 0.09120112 0.2295709 0.45766488 -0.38778093 0.12529814 0.29136702 0.1085249
-0.09130302 -0.024908567 -0.27372506 0.415613 0.048964985 -0.16938417 -0.08372595 0.2459624
0.0045387936 -0.5050235 0.4241554 -0.14406243 0.29352504 -0.29280418 -0.3526097 0.40216848
0.12121441 0.24806267 -0.43636334 -0.028421225 0.15664685 -0.05362224 -0.11561891 0.1317994
0.09475415 -0.264116 -0.10256163 0.09525833 0.21871871 0.17299174 0.35081038 0.3676667
0.039453167 -0.00045458032 -0.005970805 -0.21568237 0.26535368 -0.1723438 -0.38165137 -0.21640393
0.53460664 0.17333205 0.45046023 -0.1528766 -0.14078017 0.1397687 0.49563822 -0.14682177
-0.36646932 0.34306818 0.4385397 0.16859777 -0.09613563 0.07799788 -0.20585984 -0.2770708
0.15603508 0.47707945 0.21138376 0.09001048 -0.40858078 0.10496831 0.087642185 -0.11411004
-0.19335414 -0.26911324 0.18199927 -0.014319087 -0.19291142 -0.27621266 -0.3347527 -0.3789337
-0.12160241 -0.28016594 0.26531464 0.27058965 0.22390829 -0.52783114 0.12089296 0.19942923
-0.07552531 -0.3293203 0.21242215 0.3178678 -0.3368202 0.21286969 -0.21357465 0.25569597
00000000: 12df 903d dcb3 e33e d0a3 c83d 3751 da3d
00000010: e3d6 b03e dd32 5c3e 8696 b4bd 0536 943e
00000020: ab9d d9bd 0446 3cbd 781f cebe cf01 00be
00000030: 3a4b ba3e d4c7 c8be d282 d0be c6a5 473e
00000040: 4664 803e 65ca 06bd 6e02 bcbe 401d 25be
00000050: ddf3 453e 8b68 8e3e 7c37 8f3e a788 a4be
00000060: e87f 8abe 4391 e2be dd22 44bc 6694 793e
00000070: 436e 783d 6d46 003f e301 073f 5d37 5fbd
00000080: b2d9 ebbe 32f0 ba3d fb2c a8be e8b1 5cbe
00000090: 477a e73d a13f 1cbe 911f f5bd dae5 06bf
000000a0: eb87 a5be 4766 9dbc 876a 9cbe 5d8a 963c
000000b0: c5d9 0e3e 3dca 36be 128c 163e d565 a6be
000000c0: a473 a43e f185 dc3d f47f 0bbf 2d6d dfbe
000000d0: dd25 0bbe a518 a1be e679 f0be f9df 58be
000000e0: bdb4 ad3c e8b8 f3bd 669b c73e addf 3b3e
000000f0: dbf2 bf3e db96 a73d bf59 b4bc 7401 653e
00000100: db75 b13e 1e16 aa3c fb7d 1ebe 37ff bdbd
00000110: 4293 a33d f5ab ec3e d460 033f 5877 553e
00000120: ffb3 a1be 3eaa c3bb ccac 31be 90f2 6e3e
00000130: ace3 7c3e 89ab 11be 8669 a1be 49d9 97be
00000140: bf48 6bbe 2b9e c3be f7fe 88bd 638f 90bd
00000150: 9cc4 ee3e 71c0 3bbe 3dcd 513d b581 a43e
00000160: 7b21 b33e 6c2c 993e 19e3 9ebe d821 453e
00000170: 8f96 5dbe f8e1 d73e b95d cb3e 5ea4 b03e
00000180: 6a71 72be a7c7 ba3d a214 6b3e 0d53 ea3e
00000190: 398b c6be 284e 003e 0f2e 953e 4e42 de3d
000001a0: 14fd babd 0d0d ccbc b125 8cbe 3acb d43e
000001b0: 828f 483d 0b73 2dbe 8378 abbd 91dd 7b3e
000001c0: 29ba 943b 3849 01bf e62a d93e 1a85 13be
000001d0: ea48 963e 6eea 95be 4289 b4be 07e9 cd3e
000001e0: 433f f83d 2404 7e3e 046b dfbe a1d3 e8bc
000001f0: 0868 203e fea2 5bbd 9bc9 ecbd 6cf6 063e
00000200: 770e c23d 363a 87be d50b d2bd cd16 c33d
00000210: ccf7 5f3e bf24 313e 6b9d b33e cf3e bc3e
00000220: a599 213d bd54 eeb9 bea6 c3bb d7db 5cbe
00000230: 70dc 873e e57a 30be cf67 c3be fe98 5dbe
00000240: fbdb 083f f57d 313e b9a2 e63e af8b 1cbe
00000250: ad28 10be 871f 0f3e 4bc4 fd3e 7258 16be
00000260: dea1 bbbe a2a6 af3e 4788 e03e e5a4 2c3e
00000270: c2e2 c4bd 5abd 9f3d eccc 52be 39dc 8dbe
00000280: a9c7 1f3e c243 f43e fc74 583e 6a57 b83d
00000290: 8031 d1be a0f9 d63d bf7d b33d 86b2 e9bd
000002a0: a1fe 45be 36c9 89be 045e 3a3e 9b9a 6abc
000002b0: 928a 45be bf6b 8dbe b564 abbe 9903 c2be
000002c0: af0a f9bd e971 8fbe 52d7 873e ba8a 8a3e
000002d0: 3748 653e f11f 07bf ba96 f73d 2d37 4c3e
000002e0: 04ad 9abd ac9c a8be 3185 593e 91bf a23e
000002f0: b273 acbe 83fa 593e 50b3 5abe 95ea 823e

transformer.encoder.layers.0.self_attn.in_proj_bias f4 [24]
0.12314099 -0.04226131 -0.045077052 0.12893268 -0.05073678 -0.11334016 -0.1346426 0.072104655
0.00027356428 -0.00050069165 -0.00013901324 0.00051552994 0.0016931806 0.0006803146 0.0018932989 -0.0012315109
0.13359654 -0.09385873 0.12975845 0.04835812 -0.10114281 -0.1266689 -0.12696068 -0.123689525
00000000: 5831 fc3d 321a 2dbd b7a2 38bd ee06 043e
00000010: 5fd1 4fbd e31e e8bd c0df 09be 9bab 933d
00000020: 2d6d 8f39 d940 03ba 15c4 11b9 a124 073a
00000030: b7ed dd3a 2457 323a 9228 f83a a66a a1ba
00000040: 88cd 083e 0139 c0bd 66df 043e 2a13 463d
00000050: f623 cfbd 7eb5 01be fb01 02be ef50 fdbd

transformer.encoder.layers.0.self_attn.out_proj.weight f4 [8, 8]
0.48469615 -0.6462048 0.0024570904 0.4660099 0.2934711 0.66427505 -0.19457376 0.20667283
0.5226303 0.5468 -0.32987645 -0.6880681 -0.19434477 0.02282711 0.12997267 -0.344772
-0.341681 -0.37673 0.26397067 0.3500696 0.089948334 -0.021487493 0.26711315 -0.025000857
-0.11778991 -0.24492109 -0.6503703 0.200269 -0.72836846 0.3376614 -0.025350522 -0.3939137
0.4953952 -0.08256373 -0.21959439 0.40576482 -0.3412631 -0.39864415 0.06695472 -0.24741037
-0.36579764 -0.14903873 0.35030815 -0.6077244 -0.15504004 -0.28156677 -0.43883163 0.05427146
0.32672498 -0.37379164 0.68218267 -0.32546887 -0.3659121 -0.44079256 -0.2538402 -0.29536027
0.19298457 -0.5620394 -0.039617963 0.5504362 0.16809635 -0.5557597 -0.104512334 -0.043255232
00000000: 182a f83e ae6d 25bf 2307 213b da98 ee3e
00000010: d841 963e ee0d 2a3f 583e 47be 0ba2 533e
00000020: 19cb 053f 16fb 0b3f 91e5 a8be 3b25 30bf
00000030: 5102 47be ebff ba3c 8e17 053e f585 b0be
00000040: d0f0 aebe c1e2 c0be 2a27 873e 533c b33e
00000050: d536 b83d 8a06 b0bc 0ec3 883e 99ce ccbc
00000060: d63b f1bd 98cc 7abe ab7e 26bf 5113 4d3e
00000070: 5b76 3abf f4e1 ac3e e6ab cfbc 0eaf c9be
00000080: 71a4 fd3e 2c17 a9bd 5add 60be 68c0 cf3e
00000090: 09ba aebe 161b ccbe 8e1f 893d 2559 7dbe
000000a0: d449 bbbe 9c9d 18be 975b b33e d493 1bbf
000000b0: d1c2 1ebe 8529 90be 8aae e0be c04b 5e3d
000000c0: 7f48 a73e 9e61 bfbe 86a3 2e3f dba3 a6be
000000d0: d558 bbbe 90af e1be 58f7 81be 7639 97be
000000e0: bf9d 453e d0e1 0fbf 7246 22bd 63e9 0c3f
000000f0: 7321 2c3e 4546 0ebf 900a d6bd 662c 31bd

transformer.encoder.layers.0.self_attn.out_proj.bias f4 [8]
0.11432835 -0.10439904 -0.09296339 -0.15501568 0.0013200975 -0.112287596 0.12488732 0.074871704
00000000: fb24 ea3d 2acf d5bd 9763 bebd 6ebc 1ebe
00000010: 1f07 ad3a 0af7 e5bd ecc4 ff3d 5656 993d

transformer.encoder.layers.0.linear1.weight f4 [5, 8]
-0.049907535 -0.0067749284 -0.19938484 0.048345987 0.2920296 0.38266188 -0.3769555 -0.5653631
0.34433743 -0.16400428 0.42117998 0.25390592 0.7763898 -0.64253867 -0.59286976 0.16727324
0.6432898 0.38315606 -0.5737206 -0.65154445 0.6265597 -0.36454827 0.43540403 -0.28715685
-0.6071106 0.45745504 -0.17028955 0.30094254 -0.36896002 -0.010668155 -0.2326668 -0.0607852
0.46944895 0.07978138 -0.04833495 0.0039939266 -0.52043104 0.060523644 -0.12575658 -0.31303424
00000000: d86b 4cbd 3800 debb 8a2b 4cbe 7106 463d
00000010: e784 953e 42ec c33e 5000 c1be a3bb 10bf
00000020: ff4c b03e bdf0 27be e7a4 d73e f5ff 813e
00000030: 7bc1 463f 6a7d 24bf 50c6 17bf ad49 2b3e
00000040: a4ae 243f 082d c43e 5adf 12bf 9ecb 26bf
00000050: 3766 203f 12a6 babe 47ed de3e 3906 93be
00000060: 9a6b 1bbf 8c37 ea3e 6260 2ebe 2415 9a3e
00000070: 54e8 bcbe 7cc9 2ebc 3540 6ebe e7f9 78bd
00000080: 9d5b f03e 6c64 a33d defa 45bd 7cdf 823b
00000090: f83a 05bf a4e7 773d 55c6 00be 0646 a0be

transformer.encoder.layers.0.linear1.bias f4 [5]
0.18402213 0.20437445 -0.046655323 -0.030508846 -0.08228252
00000000: 4c70 3c3e 8947 513e a719 3fbd b0ed f9bc
00000010: bd83 a8bd

transformer.encoder.layers.0.linear2.weight f4 [8, 5]
-0.5131427 -0.18887466 -0.5315349 -0.4673062 -0.46115702 0.12003034 0.4828599 0.28312504
-0.6164772 -0.2924326 0.10558166 0.27311185 0.41133758 -0.009664027 0.12676728 -0.43360233
-0.09773654 -0.45071775 -0.05606209 -0.6565907 0.59936184 0.36371142 -0.054795433 -0.1678341
-0.5075301 0.07756465 0.54984826 -0.67884284 0.29130036 -0.3143614 -0.0058828183 0.7294707
0.052373078 -0.038146555 0.7582429 0.50970423 0.46774998 0.32451496 0.06145722 -0.21285467
00000000: 525d 03bf 5c68 41be ac12 08bf c242 efbe
00000010: c61c ecbe 78d2 f53d 6a39 f73e c4f5 903e
00000020: 73d1 1dbf bab9 95be 333b d83d 51d5 8b3e
00000030: d79a d23e de55 1ebc 48cf 013e 2001 debe
00000040: 182a c8bd 7ac4 e6be 5da1 65bd 5416 28bf
00000050: c76f 193f 6238 ba3e 2d71 60bd b4dc 2bbe
00000060: 7eed 01bf 37da 9e3d dbc2 0c3f a5c8 2dbf
00000070: 5225 953e faf3 a0be a8c4 c0bb 97be 3a3f
00000080: 2785 563d 903f 1cbd 351c 423f fa7b 023f
00000090: ed7c ef3e d326 a63e 91ba 7b3d 93f6 59be

transformer.encoder.layers.0.linear2.bias f4 [8]
0.12777434 -0.1364335 0.31595093 -0.58042085 0.066043094 0.20213957 0.35989118 0.04868984
00000000: 47d7 023e 39b5 0bbe 52c4 a13e 7696 14bf
00000010: 9a41 873d adfd 4e3e a843 b83e ff6e 473d

transformer.encoder.layers.0.norm1.weight f4 [8]
1.0971409 1.1077448 0.89371747 1.0735776 0.9908909 0.9326601 0.8974673 0.91371226
00000000: 1d6f 8c3f 95ca 8d3f abca 643f fe6a 893f
00000010: 07ab 7d3f d0c2 6e3f 6bc0 653f 0ce9 693f

transformer.encoder.layers.0.norm1.bias f4 [8]
0.11403151 -0.10286571 -0.09169055 -0.1565825 0.0009707785 -0.11233613 0.12511595 0.07501318
00000000: 5a89 e93d 42ab d2bd 41c8 bbbd 2a57 20be
00000010: d87b 7e3a 7c10 e6bd 651e 003e 83a0 993d

transformer.encoder.layers.0.norm2.weight f4 [8]
0.8635807 1.1085826 0.98749375 1.08988 0.9343404 0.87067604 1.0393032 1.0322177
00000000: a013 5d3f 09e6 8d3f 64cc 7c3f 3081 8b3f
00000010: ef30 6f3f a0e4 5e3f e307 853f b61f 843f

transformer.encoder.layers.0.norm2.bias f4 [8]
0.09043532 -0.090877295 -0.0062053124 -0.09185421 0.049310517 -0.10802688 0.12802458 0.081863455
00000000: 2736 b93d e01d babd ef55 cbbb 0f1e bcbd
00000010: d3f9 493d 323d ddbd e018 033e 07a8 a73d

transformer.encoder.layers.1.self_attn.in_proj_weight f4 [24, 8]
0.13735147 0.40692267 0.07120071 -0.05569879 0.34206274 0.05681884 -0.349616 -0.30225468
-0.3279442 -0.28215957 -0.046827562 0.31505203 -0.43081307 -0.18086338 -0.005472912 -0.31892663
-0.24607933 0.25182915 -0.122946806 -0.44807446 -0.27315503 0.09341777 0.27078468 -0.28515333
-0.15728524 -0.47815543 0.32241696 0.074562624 0.33303255 0.097664416 0.09197727 -0.20827894
-0.07493988 -0.020108977 -0.49157715 -0.02732302 -0.424226 -0.33600095 -0.077670984 -0.32423237
-0.30347398 -0.1702197 0.35608742 -0.019711617 0.28713626 0.5129271 -0.4123673 0.3868187
0.017696405 -0.49057686 0.26530764 -0.3386122 0.36322802 0.30078438 0.057825565 -0.31011307
-0.18491064 -0.17754094 -0.3022982 0.1662886 0.3481168 -0.5130673 0.05310492 0.28671658
-0.36285862 -0.18955669 0.092323124 0.32819858 0.288099 0.17940213 0.13059628 0.27387315
0.17732908 0.30553836 -0.06255304 -0.40118808 -0.12460543 0.31693536 0.045511097 0.12185189
-0.016817028 0.4532606 0.20118874 0.16947748 -0.29783872 0.38618615 -0.2211111 -0.29320034
-0.2812678 0.5208223 0.31981498 0.24468729 -0.15222882 -0.37104848 -0.18956257 -0.29249623
-0.35450727 0.22510369 -0.040106818 -0.24145319 0.27535084 -0.19404812 0.2499484 -0.48736182
0.370145 -0.3214312 -0.009503365 -0.0037635241 -0.43836537 0.12566188 -0.09794955 -0.075915344
0.460849 0.081403255 -0.08047429 0.42372364 0.11606474 -0.21291618 -0.04329455 0.38140225
-0.49299666 0.53544956 -0.27481243 0.14451575 0.09646506 -0.12222317 -0.2940332 0.18201523
0.375298 -0.15386364 0.297703 -0.2463257 -0.21491924 -0.22699083 -0.25729665 -0.25352663
0.11178023 0.29237673 0.348275 -0.12541367 0.21336475 0.27940243 0.5163122 -0.26853654
-0.3464443 0.10055613 0.0038615589 0.27948308 -0.52343804 0.009154671 0.15801415 0.29698014
-0.386729 -0.55018604 0.14466622 -0.26535287 -0.32823545 0.041620247 -0.05631262 -0.2860619
-0.10758786 -0.4789582 0.42368022 -0.1486601 0.0508157 0.05793058 -0.19314583 -0.036262482
-0.21326533 0.2164644 0.38147134 -0.4353062 -0.07562442 -0.2916211 0.43620083 -0.2624287
-0.0040199403 -0.16592072 -0.31034422 0.0919612 -0.088967316 0.31533062 0.16059704 -0.041200418
-0.18463019 0.15468223 -0.0811528 -0.15743762 0.20141588 0.13619672 -0.050039876 -0.358121
00000000: dda5 0c3e 2b58 d03e aed1 913d 6a24 64bd
00000010: d922 af3e dfba 683d de00 b3be 20c1 9abe
00000020: 4de8 a7be 3877 90be 42ce 3fbd 804e a13e
00000030: 8893 dcbe 4034 39be 1d56 b3bb 5a4a a3be
00000040: 38fc 7bbe c0ef 803e 89cb fbbd 046a e5be
00000050: fada 8bbe d151 bf3d 4aa4 8a3e 9eff 91be
00000060: 620f 21be cad0 f4be d613 a53e 4ab4 983d
00000070: 3e83 aa3e 4804 c83d 945e bc3d 1347 55be
00000080: 147a 99bd 95bb a4bc 00b0 fbbe 87d4 dfbc
00000090: 2634 d9be 5108 acbe f711 9fbd c901 a6be
000000a0: f160 9bbe 134e 2ebe 1751 b63e 427a a1bc
000000b0: 8603 933e 314f 033f cf21 d3be 1a0d c63e
000000c0: 0df8 903c e42c fbbe 67d6 873e 945e adbe
000000d0: 06f9 b93e 6900 9a3e 80da 6c3d 24c7 9ebe
000000e0: 3759 3dbe 4bcd 35be d4c6 9abe 8f47 2a3e
000000f0: 5d3c b23e 6158 03bf 8b84 593d 84cc 923e
00000100: 9bc8 b9be 261b 42be e813 bd3d a509 a83e
00000110: b681 933e 31b5 373e 08bb 053e 1a39 8c3e
00000120: c195 353e 866f 9c3e cf1b 80bd 8668 cdbe
00000130: 2231 ffbd 5a45 a23e d869 3a3d 7c8d f93d
00000140: ddc3 89bc c611 e83e 6c04 4e3e 818b 2d3e
00000150: 517e 98be 31ba c53e f36a 62be 5b1e 96be
00000160: 5502 90be 9c54 053f cabe a33e 4e8f 7a3e
00000170: dfe1 1bbe 11fa bdbe b11c 42be 11c2 95be
00000180: fa81 b5be 9581 663e 0c47 24bd 813f 77be
00000190: c9fa 8c3e 8db4 46be 79f2 7f3e 7d87 f9be
000001a0: a583 bd3e a192 a4be 00b4 1bbc 75a5 76bb
000001b0: 6d71 e0be 82ad 003e c699 c8bd 8179 9bbd
000001c0: 66f4 eb3e c0b6 a63d b4cf a4bd 4ef2 d83e
000001d0: 5ab3 ed3d b306 5abe a055 31bd 2847 c33e
000001e0: 0f6a fcbe 3913 093f 37b4 8cbe f0fb 133e
000001f0: 798f c53d 2450 fabd 858b 96be 3362 3a3e
00000200: 0f27 c03e 6e8e 1dbe 876c 983e ce3c 7cbe
00000210: ca13 5cbe 4970 68be 63bc 83be 3ece 81be
00000220: 09ed e43d 67b2 953e 1a51 b23e 716c 00be
00000230: 4a7c 5a3e d60d 8f3e 092d 043f 9f7d 89be
00000240: 2661 b1be 5ff0 cd3d 3512 7d3b 6818 8f3e
00000250: 0900 06bf 79fd 153c 76ce 213e c80d 983e
00000260: 5801 c6be fed8 0cbf 6223 143e 55dc 87be
00000270: 7a0e a8be fe79 2a3d 10a8 66bd b576 92be
00000280: 0657 dcbd 023a f5be 9dec d83e 5a3a 18be
00000290: 2024 503d 9e48 6d3d 05c8 45be f887 14bd
000002a0: 3a62 5abe d8a8 5d3e 3650 c33e 74e0 debe
000002b0: fae0 9abd 5c4f 95be b755 df3e 0e5d 86be
000002c0: b4b9 83bb 1fe7 29be 70e5 9ebe 2756 bc3d
000002d0: 7f34 b6bd 0473 a13e 8d73 243e c5c1 28bd
000002e0: b20f 3dbe 0565 1e3e 7033 a6bd 5437 21be
000002f0: f73f 4e3e 2777 0b3e 9df6 4cbd a35b b7be

transformer.encoder.layers.1.self_attn.in_proj_bias f4 [24]
0.06637556 -0.06943309 0.08331376 0.10398578 -0.08291235 0.08832809 0.10905055 -0.11392942
-0.0007221894 -0.00038150715 0.0004577926 0.00031603596 0.003357928 -0.0073319813 -0.0025650533 0.0016641072
-0.007911545 0.13331455 0.09052979 0.1331449 0.0910552 0.022502149 0.058225065 -0.12042668
00000000: e9ef 873d f032 8ebd 68a0 aa3d 7ff6 d43d
00000010: f3cd a9bd 5ce5 b43d e555 df3d d453 e9bd
00000020: 4f51 3dba 0605 c8b9 e203 f039 a1b1 a539
00000030: af10 5c3b 1e41 f0bb 741a 28bb 2c1e da3a
00000040: 6d9f 01bc 9c83 083e af67 b93d 2357 083e
00000050: 267b ba3d 6d56 b83c 687d 6e3d 43a2 f6bd

transformer.encoder.layers.1.self_attn.out_proj.weight f4 [8, 8]
0.42792293 0.15842484 -0.2698729 0.6485442 0.36852208 0.376706 -0.3999699 -0.44217506
-0.46359077 -0.1939709 -0.30168864 -0.30988172 -0.49606496 -0.5592824 -0.45468357 0.4094617
0.24847144 -0.24796285 0.37803838 -0.36366585 -0.48312047 -0.53120565 0.54938626 0.38425255
0.056346223 -0.31609374 0.4339585 0.15199582 0.45689154 0.024302296 -0.17705236 -0.1501623
0.5626649 -0.25945136 -0.34943464 -0.4492339 -0.3633354 0.08965605 -0.3730693 -0.28705126
0.16076992 0.116285436 -0.037094872 -0.6409825 -0.13567764 0.10024526 -0.34694856 0.41834077
-0.015748605 0.39490157 0.11397101 0.40727863 0.013024896 -0.4881075 -0.508796 0.39469376
0.2225485 0.30879468 0.49174315 0.3277471 0.68587774 0.62595624 0.33314368 -0.43739256
00000000: b718 db3e 1f3a 223e c82c 8abe fe06 263f
00000010: edae bc3e 9cdf c03e dbc8 ccbe c564 e2be
00000020: c55b edbe 4fa0 46be ef76 9abe d1a8 9ebe
00000030: 3afc fdbe 222d 0fbf 49cc e8be f7a4 d13e
00000040: 4c6f 7e3e f9e9 7dbe 3f8e c13e 6932 babe
00000050: 915b f7be 18fd 07bf 94a4 0c3f c0bc c43e
00000060: 4ccb 663d 0ad7 a1be cf2f de3e cba4 1b3e
00000070: b0ed e93e 9c15 c73c 374d 35be 25c4 19be
00000080: cf0a 103f cfd6 84be 19e9 b2be fc01 e6be
00000090: 1907 babe 979d b73d f002 bfbe 62f8 92be
000000a0: dfa0 243e 0f27 ee3d cbf0 17bd 6e17 24bf
000000b0: 14ef 0abe 634d cd3d 3ea3 b1be c330 d63e
000000c0: 3803 81bc 8a30 ca3e a269 e93d d386 d03e
000000d0: 6066 553c 3ae9 f9be 7440 02bf 4d15 ca3e
000000e0: c1e3 633e 561a 9e3e c2c5 fb3e 78ce a73e
000000f0: af95 2f3f ab3e 203f cf91 aa3e ebf1 dfbe

transformer.encoder.layers.1.self_attn.out_proj.bias f4 [8]
0.06288224 -0.09626903 -0.01999354 -0.12337852 0.058394566 -0.09511884 0.1282786 0.12837866
00000000: 67c8 803d b228 c5bd 7ec9 a3bc e1ad fcbd
00000010: 242f 6f3d abcd c2bd 775b 033e b275 033e

transformer.encoder.layers.1.linear1.weight f4 [5, 8]
0.5717934 -0.45892122 0.39484525 -0.6191169 -0.062034033 0.3733549 0.036483366 0.4014049
0.105404735 -0.50726974 0.38835362 0.56137246 -0.12237659 -0.44361013 0.35401917 0.44317877
-0.098243795 0.56400853 -0.4784245 0.5522398 0.6188594 -0.19673139 -0.60856396 -0.63942283
0.468357 0.6040801 0.43961763 0.45742056 -0.5040779 0.33722365 0.13229638 -0.24008171
0.03144002 0.4845619 0.3624333 0.2575377 -0.54943734 0.31296262 -0.59150165 0.6048609
00000000: 0d61 123f b9f7 eabe 2829 ca3e 727e 1ebf
00000010: 6617 7ebd 6028 bf3e 956f 153d f184 cd3e
00000020: 70de d73d 6edc 01bf 49d6 c63e 1bb6 0f3f
00000030: 94a0 fabd de20 e3be 0042 b53e 54e8 e23e
00000040: 0b34 c9bd dd62 103f 0ef4 f4be 965f 0d3f
00000050: 926d 1e3f f473 49be d9ca 1bbf 37b1 23bf
00000060: 7dcc ef3e fea4 1a3f 9015 e13e 0733 ea3e
00000070: 400b 01bf 94a8 ac3e b478 073e fbd7 75be
00000080: 40c7 003d 7f18 f83e dc90 b93e fbdb 833e
00000090: eda7 0cbf a33c a03e a76c 17bf 2ad8 1a3f

transformer.encoder.layers.1.linear1.bias f4 [5]
0.2716342 0.1016889 -0.08716711 -0.033679206 -0.25861984
00000000: a313 8b3e 4542 d03d ab84 b2bd 35f3 09bd
00000010: d269 84be

transformer.encoder.layers.1.linear2.weight f4 [8, 5]
-0.6113876 -0.16472027 -0.21228684 0.15758608 -0.4726704 0.4190541 0.47120312 0.467614
0.39371142 0.41105103 -0.3065852 0.55203307 -0.44153973 0.41399235 0.3803784 0.55254316
0.46673483 0.22225814 -0.10018564 -0.55616176 -0.52385753 0.29204747 -0.39879853 -0.29345414
0.31703 0.3613277 0.36933395 -0.62808883 0.41714993 -0.4006037 0.6030489 0.6035415
0.63956183 -0.543793 -0.02378163 0.6079961 0.0023914613 -0.57597345 0.032542344 0.054715462
00000000: e683 1cbf 6eac 28be b961 59be 3f5e 213e
00000010: db01 f2be 428e d63e 8941 f13e 1a6b ef3e
00000020: 8b94 c93e 4875 d23e bcf8 9cbe 0a52 0d3f
00000030: 7f11 e2be cef6 d33e f5c0 c23e 7873 0d3f
00000040: def7 ee3e a397 633e 212e cdbd 9e60 0ebf
00000050: 871b 06bf 3f87 953e 522f ccbe 9f3f 96be
00000060: c251 a23e f2ff b83e 5719 bd3e 6eca 20bf
00000070: ad94 d53e ee1b cdbe 6a61 1a3f b281 1a3f
00000080: 53ba 233f 0536 0bbf b1d1 c2bc a2a5 1b3f
00000090: 10ba 1c3b ff72 13bf 1f4b 053d 521d 603d

transformer.encoder.layers.1.linear2.bias f4 [8]
0.06850724 -0.08328936 0.38558608 -0.4637786 -0.095876426 0.19323769 0.35799745 0.06586321
00000000: 864d 8c3d 9d93 aabd 8a6b c53e 6374 edbe
00000010: dc5a c4bd 1ae0 453e 714b b73e 4ae3 863d

transformer.encoder.layers.1.norm1.weight f4 [8]
0.9402705 1.095507 0.9301992 1.1424849 0.8777362 0.9016958 0.9383584 1.1657447
00000000: 91b5 703f 9339 8c3f 8921 6e3f f23c 923f
00000010: 52b3 603f 89d5 663f 4238 703f 1f37 953f

transformer.encoder.layers.1.norm1.bias f4 [8]
-0.0449212 -0.1006409 -0.042489395 -0.12262655 0.009015641 -0.090305954 0.12443812 0.1393551
00000000: 4bff 37bd d11c cebd 5c09 2ebd a123 fbbd
00000010: 57b6 133c 54f2 b8bd 6ad9 fe3d 1ab3 0e3e

transformer.encoder.layers.1.norm2.weight f4 [8]
0.9915807 0.8944946 1.0188196 1.0462755 1.1288757 0.8784151 1.0898589 1.108677
00000000: 3cd8 7d3f 99fd 643f ae68 823f 5bec 853f
00000010: 007f 903f d0df 603f 7f80 8b3f 21e9 8d3f

transformer.encoder.layers.1.norm2.bias f4 [8]
0.008798298 -0.044992782 0.0027041864 -0.031222474 -0.14325672 -0.11302581 0.12770654 0.09908523
00000000: bd26 103c 5a4a 38bd b838 313b 46c6 ffbc
00000010: e4b1 12be 137a e7bd 81c5 023e 32ed ca3d

transformer.encoder.norm.weight f4 [8]
1.0659652 0.90259206 0.9299802 1.0739256 1.1318728 0.89456964 1.0241094 0.9789483
00000000: 8c71 883f 4610 673f 2f13 6e3f 6576 893f
00000010: 35e1 903f 8402 653f 0416 833f 5b9c 7a3f

transformer.encoder.norm.bias f4 [8]
-0.06740817 -0.07099226 -0.07400501 -0.06630457 -0.12584437 -0.10749472 0.04636427 0.037242446
00000000: 4b0d 8abd 6464 91bd f08f 97bd b1ca 87bd
00000010: 59dd 00be 3126 dcbd 76e8 3d3d 898b 183d

transformer.decoder.layers.0.self_attn.in_proj_weight f4 [24, 8]
-0.44680795 0.367317 -0.2572426 -0.347496 -0.10463319 0.21570374 0.39940384 0.23482126
-0.28523916 -0.30247146 0.32915407 0.2686325 -0.04122888 0.4552886 -0.08079433 -0.26543465
-0.1856086 -0.13741985 -0.457307 0.005485908 0.0069208085 0.2955941 -0.10970163 -0.30001193
-0.25433323 0.046224646 -0.2538899 -0.14407863 0.54958296 0.17004831 -0.06390667 -0.19141833
-0.16969588 -0.33884245 -0.02156495 -0.22713897 -0.00025248044 0.2980192 0.4186725 -0.13843223
0.3323184 -0.044694375 0.15774505 -0.2560692 0.10324225 -0.32026276 0.095843844 -0.4677209
0.498128 -0.40139875 -0.30465794 0.39001518 0.14824462 -0.1732416 -9.437e-05 0.08280008
-0.26577497 -0.08031312 -0.12614901 -0.11937976 0.19537632 -0.2574561 -0.021363603 0.4971486
0.17631601 0.20226377 0.4104709 -0.100919016 0.37666795 -0.46992177 0.245218 0.28911954
-0.38963714 0.43915412 0.28828844 -0.2820871 -0.34168768 0.3934329 0.3291475 -0.21221839
0.38489413 0.14281513 0.15824865 -0.32125968 -0.4908271 -0.01217313 0.41841537 0.18373507
0.015656706 -0.34505555 -0.16205063 -0.26326245 -0.27609697 0.2024196 -0.34199437 0.32144427
0.27557653 0.3471272 0.4332231 -0.24424982 0.12207874 0.1361172 -0.28067753 -0.24542777
-0.23194867 0.095127575 0.48097005 -0.07570931 0.48530006 0.1108219 0.23269686 -0.47308147
0.06996214 -0.28221205 -0.26047963 0.2156967 -0.1489424 0.43074596 -0.50000864 -0.38112277
-0.3631966 -0.16897902 -0.18337663 -0.1976118 -0.19479099 -0.17336439 -0.20170623 -0.1417365
-0.08254464 -0.32447416 -0.38026318 -0.15236412 -0.35144123 0.3531796 0.49262092 0.0063565425
0.115725376 -0.27968058 -0.49450636 0.039253395 0.23256102 -0.36929074 -0.102616325 0.28304225
-0.36814892 -0.25808018 -0.29058403 0.021073073 0.11033746 -0.13218793 0.06512037 0.0112684015
0.15078937 -0.1576435 -0.37500602 0.026953632 0.08799673 -0.42791143 0.17230959 -0.049403254
0.03165657 -0.10688764 -0.2665452 0.2941949 -0.17662844 0.26720074 0.0567665 -0.12109648
0.27979702 0.2980641 0.100003935 0.32665715 -0.13791 0.27084193 -0.1834103 -0.03346835
-0.36517027 0.39026734 0.3573336 -0.336988 0.41470608 -0.29242104 -0.29115564 0.24639642
0.01797654 -0.31350404 0.15154566 0.24607943 -0.4507358 -0.19042093 0.06382803 -0.07130604
00000000: 03c4 e4be f910 bc3e 4db5 83be ffea b1be
00000010: ed49 d6bd 71e1 5c3e a97e cc3e fc74 703e
00000020: de0a 92be 8add 9abe e286 a83e 338a 893e
00000030: 9ddf 28bd 961b e93e 7f77 a5bd 0de7 87be
00000040: 2e10 3ebe cab7 0cbe 2524 eabe 22c3 b33b
00000050: f3c7 e23b 1c58 973e 40ab e0bd 2a9b 99be
00000060: f737 82be 0e56 3d3d dbfd 81be 5989 13be
00000070: 78b1 0c3f 2521 2e3e 80e1 82bd 2b03 44be
00000080: c2c4 2dbe c27c adbe faa8 b0bc 1e97 68be
00000090: 5a5f 84b9 f995 983e 3e5c d63e 2ec1 0dbe
000000a0: a325 aa3e 7311 37bd eb87 213e 811b 83be
000000b0: ac70 d33d 7bf9 a3be c749 c43d 1d79 efbe
000000c0: a20a ff3e 2384 cdbe 20fc 9bbe 12b0 c73e
000000d0: 70cd 173e 3f66 31be 82e8 c5b8 1793 a93d
000000e0: a813 88be 347b a4bd 352d 01be 607d f4bd
000000f0: bb10 483e 49d1 83be b902 afbc 438a fe3e
00000100: 2f8c 343e 3c1e 4f3e 3e29 d23e a1ae cebd
00000110: 9fda c03e 9699 f0be 6d1a 7b3e 7a07 943e
00000120: 857e c7be cfd8 e03e 8b9a 933e b86d 90be
00000130: b0f1 aebe 0970 c93e 0586 a83e c74f 59be
00000140: d810 c53e 213e 123e ef0b 223e 267c a4be
00000150: b14d fbbe cf71 47bc 8a3a d63e 0c25 3c3e
00000160: 7e42 803c 1fab b0be 9af0 25be 56ca 86be
00000170: 955c 8dbe 1547 4f3e e319 afbe 5894 a43e
00000180: 5e18 8d3e a8ba b13e 6bcf dd3e a01c 7abe
00000190: 6b04 fa3d 4f62 0b3e f7b4 8fbe 6b51 7bbe
000001a0: f483 6dbe 3fd2 c23d b541 f63e 7c0d 9bbd
000001b0: 4079 f83e 98f6 e23d 1648 6e3e bc37 f2be
000001c0: 4f48 8f3d 197e 90be 965d 85be 99df 5c3e
000001d0: 5b84 18be bc8a dc3e 9100 00bf 8622 c3be
000001e0: e8f4 b9be d608 2dbe 15c7 3bbe bf5a 4abe
000001f0: 4a77 47be 6f86 31be 148c 4ebe 6023 11be
00000200: 2a0d a9bd 7a21 a6be dbb1 c2be 5705 1cbe
00000210: 1bf0 b3be f5d3 b43e cf38 fc3e 8b4a d03b
00000220: 6d01 ed3d 4b32 8fbe f02f fdbe 2bc8 203d
00000230: 7a24 6e3e ad13 bdbe 8228 d2bd eaea 903e
00000240: 047e bcbe 1623 84be 6ec7 94be 70a1 ac3c
00000250: 9bf8 e13d 465c 07be d45d 853d 1a9f 383c
00000260: 8768 1a3e 4c6d 21be ca00 c0be ddcd dc3c
00000270: a137 b43d 3517 dbbe ed71 303e 115b 4abd
00000280: 52aa 013d e8e7 dabd 9d78 88be b7a0 963e
00000290: 16de 34be 89ce 883e fd83 683d 6e01 f8bd
000002a0: 8e41 8f3e dc9b 983e ddce cc3d 9b3f a73e
000002b0: 4738 0dbe cbab 8a3e e9cf 3bbe 1c16 09bd
000002c0: 99f7 babe 1fd1 c73e 6ef4 b63e b189 acbe
000002d0: 5b54 d43e 36b8 95be 5a12 95be 584f 7c3e
000002e0: 8943 933c 9a83 a0be c92e 1b3e 3ffc 7b3e
000002f0: d8c6 e6be b4fd 42be 45b8 823d e708 92bd

transformer.decoder.layers.0.self_attn.in_proj_bias f4 [24]
0.0745467 0.044595942 0.032721397 -0.047800627 -0.11451565 -0.090248495 0.11295614 0.10960253
-0.000113655675 -0.0019204271 -0.0026146797 -0.0016192624 -0.0019647016 0.0020160174 0.007049579 -0.000986552
0.026128972 -0.011654399 -0.013255924 -0.118558355 -0.06398908 0.051585354 -0.12084216 0.060073007
00000000: f1ab 983d 3caa 363d df06 063d 97ca 43bd
00000010: 2e87 eabd 34d4 b8bd 8c55 e73d 4b77 e03d
00000020: 6d5a eeb8 d7b6 fbba 0c5b 2bbb 6e3d d4ba
00000030: 39c2 00bb 291f 043b 2800 e73b 314f 81ba
00000040: 6d0c d63c 18f2 3ebc 602f 59bc b9ce f2bd
00000050: b50c 83bd 2a4b 533d 187c f7bd 1d0f 763d

transformer.decoder.layers.0.self_attn.out_proj.weight f4 [8, 8]
0.60005456 0.32220146 0.28062725 -0.44726416 0.43602246 -0.26134232 -0.48611876 -0.032293823
0.6210508 0.10080109 -0.41614008 -0.3804712 0.07810687 0.14145021 0.45713013 -0.3583883
-0.08408976 0.5104789 -0.23184963 0.49606705 0.17556214 -0.2626051 0.57870454 -0.60248536
-0.27845502 0.6213659 -0.19969822 0.25410387 0.34970132 0.01610081 -0.6661886 -0.1574483
0.6146471 0.5681742 -0.2410357 0.6879748 0.5986536 0.17077868 -0.27184144 0.3921204
-0.21858786 -0.3615491 0.32555404 0.38252777 -0.53385335 -0.14217874 -0.18869597 0.193107
-0.55743283 -0.5385816 -0.18635704 0.18848433 0.40039882 -0.0039885365 0.66128993 0.27914527
0.22414012 -0.2191662 -0.05044703 0.5682098 -0.33718103 0.33174807 -0.5720256 0.6164962
00000000: 2d9d 193f 97f7 a43e 60ae 8f3e cfff e4be
00000010: 563e df3e a9ce 85be 8fe4 f8be 8746 04bd
00000020: 2ffd 1e3f cd70 ce3d 5010 d5be 1fcd c2be
00000030: 7ff6 9f3d 53d8 103e f60c ea3e ac7e b7be
00000040: 4137 acbd bfae 023f fd69 6dbe 80fc fd3e
00000050: 90c6 333e 2d74 86be fb25 143f 7b3c 1abf
00000060: a891 8ebe d611 1f3f b17d 4cbe e719 823e
00000070: 0d0c b33e d9e5 833c 568b 2abf 213a 21be
00000080: 8359 1d3f dd73 113f 10d2 76be 1e1f 303f
00000090: 5d41 193f 9be0 2e3e cd2e 8bbe 01c4 c83e
000000a0: 7fd5 5fbe f71c b9be 05af a63e aeda c33e
000000b0: 9daa 08bf 4e97 11be 8439 41be d7bd 453e
000000c0: ebb3 0ebf 7ce0 09bf 61d4 3ebe 0902 413e
000000d0: 1301 cd3e 45b2 82bb 4c4a 293f 21ec 8e3e
000000e0: fd84 653e 1b6d 60be 8ca1 4ebd 3376 113f
000000f0: fea2 acbe e2da a93e 4570 12bf b2d2 1d3f

transformer.decoder.layers.0.self_attn.out_proj.bias f4 [8]
-0.040509798 0.016780723 -0.08820335 0.13998018 0.06505269 -0.041927263 -0.11271798 0.05083868
00000000: 9aed 25bd ba77 893c f5a3 b4bd f756 0f3e
00000010: 583a 853d ecbb 2bbd afd8 e6bd 383c 503d

transformer.decoder.layers.0.multihead_attn.in_proj_weight f4 [24, 8]
-0.11862422 0.30387986 0.39385903 0.21781625 -0.48219875 0.40581182 0.25272042 0.251011
0.116886176 -0.2981063 -0.15950637 -0.052210364 -0.3310271 0.44847098 0.07975443 0.1878659
0.26518497 0.18544886 -0.08657133 -0.3029582 -0.12677415 0.3869046 -0.19545913 -0.27350107
0.05058432 -0.26453644 0.02503242 0.027474068 -0.1733403 -0.29367495 -0.24584886 -0.17311114
-0.13354006 -0.008108029 0.32895058 0.31932318 0.039570298 -0.039102186 0.2665844 0.117742635
0.1313831 0.030652916 -0.20073919 -0.4354263 0.27375785 0.40256584 -0.23215915 -0.0019718148
0.16526303 -0.37255725 -0.06574144 0.015518286 0.086511336 -0.08943926 -0.3041795 -0.103082
-0.4175836 -0.49766883 -0.16032162 -0.006535995 -0.49909297 0.15751342 0.07595563 0.28789127
-0.23889378 0.48704955 0.1213855 -0.3651205 -0.15946512 -0.42003393 -0.22616577 -0.43148515
0.0772035 -0.14300083 0.3880203 -0.5017639 -0.37955076 0.12807754 -0.2689886 0.38192979
0.5560197 0.23932187 0.09663631 -0.0863734 0.054760326 0.26677522 -0.19352087 0.12005723
-0.1546515 -0.13771816 0.2918571 0.17907304 0.27709523 -0.1256817 0.11827506 0.5587846
-0.29812065 0.24436325 0.08694631 -0.049027517 -0.012279755 0.22106077 0.028040176 -0.06363196
-0.1953945 0.27035803 -0.31618983 -0.036550105 0.2421045 -0.13457462 0.47782207 -0.011043664
0.21768643 -0.18139167 0.057770975 0.027247941 -0.38245064 0.36992696 -0.06689605 -0.31042138
-0.50108564 -0.046848264 0.47114858 -0.53832567 0.26682052 0.17429452 -0.12462765 -0.20013067
-0.002506406 -0.057926472 -0.006964004 0.08989378 0.064485855 0.16767114 0.37494528 0.21203113
0.024580427 -0.33183825 -0.1227172 -0.36234164 -0.3447327 -0.16440408 -0.39494666 -0.044147085
0.3167128 0.37384367 0.36337343 -0.077864245 0.353321 -0.062684536 -0.10973776 -0.3777585
-0.22168423 -0.3161424 -0.28144625 -0.21505363 0.4078089 0.29059657 0.09871078 -0.2524879
0.24509422 -0.044551536 0.18810236 0.4470144 0.14806035 0.11078673 0.042146973 0.20332319
-0.17732279 -0.27311203 -0.14859536 -0.12052652 -0.42808506 0.4256809 -0.13417242 0.27219164
0.5025978 0.24425776 -0.33846995 -0.2884721 0.33024547 -0.0059954342 0.48656243 0.062407784
0.10926161 0.2605603 -0.24372119 0.39968705 0.08315337 -0.16605575 -0.008266413 -0.054284222
00000000: 41f1 f2bd 2496 9b3e e4a7 c93e 390b 5f3e
00000010: c1e2 f6be 91c6 cf3e 9264 813e 8484 803e
00000020: 0562 ef3d 64a1 98be a355 23be 89da 55bd
00000030: 627c a9be fd9d e53e 4a56 a33d eb5f 403e
00000040: 53c6 873e 4ee6 3d3e 4f4c b1bd 561d 9bbe
00000050: 15d1 01be 5c18 c63e 7026 48be 5508 8cbe
00000060: 8131 4f3d 5271 87be ca10 cd3c 4c11 e13c
00000070: 1f80 31be 905c 96be cebf 7bbe 0c44 31be
00000080: babe 08be 8ad7 04bc 366c a83e 547e a33e
00000090: 7714 223d 9d29 20bd c07d 883e 0d23 f13d
000000a0: 4b89 063e d31b fb3c 938e 4dbe 32f0 debe
000000b0: fd29 8c3e 1c1d ce3e 21bb 6dbe 9039 01bb
000000c0: b63a 293e d3bf bebe 73a3 86bd 6940 7e3c
000000d0: db2c b13d ee2b b7bd 6abd 9bbe a81c d3bd
000000e0: 85cd d5be 73ce febe 5a2b 24be e62b d6bb
000000f0: 1d89 ffbe 334b 213e a08e 9b3d 7c66 933e
00000100: 92a0 74be 8f5e f93e f698 f83d 13f1 babe
00000110: d34a 23be b00e d7be 0098 67be 9feb dcbe
00000120: de1c 9e3d cf6e 12be 99aa c63e 9973 00bf
00000130: 7a54 c2be c226 033e e0b8 89be 4d8c c33e
00000140: 4f57 0e3f cb10 753e 42e9 c53d 8ae4 b0bd
00000150: 5d4c 603d c396 883e 562a 46be 91e0 f53d
00000160: f65c 1ebe fd05 0dbe 4b6e 953e ec5e 373e
00000170: 6ddf 8d3e b4b2 00be 323a f23d 820c 0f3f
00000180: 45a3 98be 5c3a 7a3e e810 b23d 14d1 48bd
00000190: 0731 49bc c15d 623e 83b4 e53c 7951 82bd
000001a0: 7f15 48be 5e6c 8a3e a2e3 a1be 90b5 15bd
000001b0: 3eea 773e eecd 09be 18a5 f43e 7cf0 34bc
000001c0: 31e9 5e3e bdbe 39be 42a1 6c3d 1337 df3c
000001d0: 92d0 c3be 1167 bd3e cc00 89bd 8def 9ebe
000001e0: 2647 00bf f7e3 3fbd 633a f13e b6cf 09bf
000001f0: b39c 883e 437a 323e c83c ffbd 0eef 4cbe
00000200: 8442 24bb 4f44 6dbd 4d32 e4bb 3b1a b83d
00000210: 2911 843d fcb1 2b3e d4f8 bf3e b01e 593e
00000220: e45c c93c b4e6 a9be 2853 fbbd d884 b9be
00000230: ce80 b0be 8b59 28be 7336 cabe 93d3 34bd
00000240: 2e28 a23e 7068 bf3e 150c ba3e 4a77 9fbd
00000250: 7de6 b43e c060 80bd 31be e0bd 9069 c1be
00000260: 3101 63be 6bdd a1be b919 90be 0537 5cbe
00000270: 54cc d03e 13c9 943e e128 ca3d 1846 81be
00000280: fbf9 7a3e ac7b 36bd e89d 403e 12df e43e
00000290: 229d 173e 27e4 e23d 4ea2 2c3d f433 503e
000002a0: 1b94 35be 57d5 8bbe 6229 18be 9cd6 f6bd
000002b0: f72d dbbe d9f2 d93e 7f64 09be b45c 8b3e
000002c0: 40aa 003f b51e 7a3e ef4b adbe 9db2 93be
000002d0: ef15 a93e 5975 c4bb b61e f93e 4e9f 7f3d
000002e0: 8dc4 df3d 2968 853e 0c92 79be c8a3 cc3e
000002f0: 504c aa3d 850a 2abe d96f 07bc 2259 5ebd

transformer.decoder.layers.0.multihead_attn.in_proj_bias f4 [24]
-0.12253045 -0.07176158 0.015175768 -0.0943492 -0.11146737 -0.09792499 0.11088967 0.013602691
-0.0039615617 -0.004306098 0.0012833716 -0.0017763672 0.0021617094 0.00077086664 0.00419137 0.0043463563
-0.017725663 0.026824452 0.019902885 0.030681612 -0.10556735 0.12925398 -0.07296254 -0.045326043
00000000: 3ff1 fabd bcf7 92bd c9a3 783c 273a c1bd
00000010: 0149 e4bd e68c c8bd 201a e33d d2dd 5e3c
00000020: fdcf 81bb 2b1a 8dbb ce36 a83a fed4 e8ba
00000030: 77ab 0d3b fc13 4a3a c357 893b e16b 8e3b
00000040: 6935 91bc f4be db3c 600b a33c 0158 fb3c
00000050: b233 d8bd 285b 043e 626d 95bd cda7 39bd

transformer.decoder.layers.0.multihead_attn.out_proj.weight f4 [8, 8]
0.1914077 0.6630433 -0.2154831 0.3898397 -0.18285693 0.22256653 0.46635997 -0.19488595
-0.03713225 -0.034578536 0.0786452 0.5327473 0.42143682 -0.48720723 -0.2720854 -0.042389873
0.29768318 -0.16738522 -0.061181962 -0.44767693 0.28802547 -0.39529347 0.39381596 0.27422914
0.55872047 -0.46773428 -0.3318498 -0.34410682 -0.44587484 0.55629456 -0.12134668 -0.07232811
0.016069392 0.2539976 0.45684487 0.3675711 -0.04802987 0.098020256 -0.105836935 0.04870549
-0.16574007 -0.44528407 0.067995265 0.39470044 -0.14923127 0.20557785 -0.44477493 0.49051663
-0.39002815 -0.16297019 0.7247767 -0.67789465 -0.49564034 -0.5443901 -0.107885145 -0.24329917
0.22002184 0.28109282 -0.34784907 -0.10375188 0.47996274 0.1857849 0.16172427 0.0067437324
00000000: 6100 443e 35bd 293f 9aa7 5cbe 1299 c73e
00000010: d93e 3bbe 7be8 633e bcc6 ee3e 2f90 47be
00000020: fc17 18bd 39a2 0dbd bc10 a13d 2162 083f
00000030: 91c6 d73e 3a73 f9be c74e 8bbe 01a1 2dbd
00000040: ee69 983e 0867 2bbe f099 7abd e935 e5be
00000050: 1378 933e e863 cabe 3fa2 c93e c367 8c3e
00000060: 4e08 0f3f de7a efbe 38e8 a9be c52e b0be
00000070: b549 e4be 5269 0e3f 9c84 f8bd c320 94bd
00000080: f5a3 833c f90b 823e 92e7 e93e 4732 bc3e
00000090: f8ba 44bd d8be c83d 09c1 d8bd 687f 473d
000000a0: c4b7 29be 46fc e3be 1a41 8b3d 2d16 ca3e
000000b0: 15d0 18be 0083 523e 8ab9 e3be ff24 fb3e
000000c0: c5b1 c7be a8e1 26be f78a 393f 818a 2dbf
000000d0: 92c4 fdbe 265d 0bbf e3f2 dcbd 6b23 79be
000000e0: 684d 613e 66eb 8f3e 4619 b2be de7b d4bd
000000f0: adbd f53e 663e 3e3e 0c9b 253e 87fa dc3b

transformer.decoder.layers.0.multihead_attn.out_proj.bias f4 [8]
-0.048084304 0.027889036 -0.08453284 0.14384873 0.05565153 -0.034440465 -0.08503504 0.048631575
00000000: 0cf4 44bd 8c77 e43c 8e1f adbd 154d 133e
00000010: dcf2 633d 7211 0dbd da26 aebd e731 473d

transformer.decoder.layers.0.linear1.weight f4 [5, 8]
0.25575852 0.48194462 0.5785137 0.29735494 0.6205992 0.47790074 -0.19350347 -0.51190794
-0.0966811 0.20785305 -0.0027409995 -0.6138796 -0.2592648 -0.54711163 0.28426507 -0.53062034
0.4130519 0.34668788 0.28306282 -0.47806257 0.06291206 -0.014321285 -0.7013853 -0.42842293
0.7534721 -0.08146571 -0.73340863 0.07020437 0.10295037 0.19697021 -0.28687763 0.7667245
-0.47159111 0.3956081 0.3971252 0.16229118 0.6068552 -0.67115724 0.1475181 -0.47451776
00000000: c8f2 823e 72c1 f63e 7919 143f e83e 983e
00000010: 97df 1e3f 68af f43e c625 46be 660c 03bf
00000020: be00 c6bd 6ed7 543e 57a2 33bb 3727 1dbf
00000030: 5bbe 84be 820f 0cbf 318b 913e bcd6 07bf
00000040: 8a7b d33e 1381 b13e 9ced 903e 9ec4 f4be
00000050: 0ad8 803d d3a3 6abc fd8d 33bf 405a dbbe
00000060: 8ce3 403f 7fd7 a6bd abc0 3bbf 4fc7 8f3d
00000070: a5d7 d23d 8fb2 493e a0e1 92be 0f48 443f
00000080: 6474 f1be 258d ca3e ff53 cb3e a92f 263e
00000090: dd5a 1b3f f6d0 2bbf fc0e 173e fef3 f2be

transformer.decoder.layers.0.linear1.bias f4 [5]
-0.24674937 -0.18808953 -0.26746374 0.042725272 -0.0751853
00000000: deab 7cbe 8b9a 40be 02f1 88be b200 2f3d
00000010: c0fa 99bd
